cartpole-implementation/best_meta_network.pth (torch, 73805 bytes, 5 tensors)

fc1.weight f4 [128, 7]
000000 92 9a 59 3e 2c 52 98 3d c0 ab 78 bc 51 d3 a6 be
       0.2125037 0.07437548 -0.015177667 -0.32583097
000010 6e ab 53 3e 98 4d a9 be d0 cf 1f bd 64 8a 93 bc
       0.20670864 -0.33067012 -0.039016545 -0.018010326
000020 46 89 94 3e 34 fb 92 be 84 85 08 be 78 ce 38 3e
       0.2901098 -0.28707278 -0.13332182 0.18047512
000030 65 24 ef 3d 2c cb 7b 3d 65 17 66 3e b9 79 8e 3e
       0.116768636 0.061473057 0.22469862 0.27827242
000040 81 6e 90 3e ae a2 ab 3e 0b 17 1d bd dc d6 bc 3e
       0.28209308 0.33522552 -0.038352054 0.36882675
000050 0c b8 b4 bd 48 00 89 3e 28 28 74 3e ae 83 d6 bd
       -0.08824167 0.26758027 0.23843443 -0.10474335
000060 98 c5 b5 bd cd 7a a1 be 1b 39 9e 3d 3b 75 5a bd
       -0.08875579 -0.31539002 0.07725736 -0.053334456
000070 76 c9 12 3e 0e a9 62 3e 32 dc 8a 3e db e2 ef bd
       0.14334664 0.22134802 0.2712112 -0.11713191
000080 fc 7a 78 3e 40 c3 09 be 7e fa 97 bd 03 06 3c be
       0.24265665 -0.13453388 -0.074208245 -0.18361668
000090 94 8f b5 3e 6d 9d 5c bc e0 1f ba bd 8a 23 2b be
       0.35461104 -0.013465268 -0.09088111 -0.16712776
0000a0 22 a8 6c 3e e4 1b f2 bc 24 e9 78 3e 40 2e 8c be
       0.23111013 -0.029554315 0.24307686 -0.27379036
0000b0 27 c2 a5 be 0a 86 d8 bd ee 76 ae 3e 28 fd b3 be
       -0.3237469 -0.10572441 0.3407511 -0.3515408
0000c0 92 6f 0c 3e 46 22 ed bd 02 b7 0d 3e de 47 a4 be
       0.13714436 -0.11578803 0.13839343 -0.3208608
0000d0 ba c0 42 3e 29 ce cf 3c c1 1d 8b be 5a b6 a5 3e
       0.19018832 0.02536686 -0.27171138 0.32365686
0000e0 c8 0b cb bd e5 8d 87 bd 10 f4 9b be ef c7 19 3e
       -0.099143565 -0.06618861 -0.30459642 0.15017675
0000f0 36 e3 16 3e 5e d3 5e be 0d 3b a8 3e 14 b5 aa 3d
       0.14735112 -0.21760318 0.32857552 0.08335319
000100 3c 38 da bd b6 f4 41 3e 68 56 6d bd 2c 57 a6 3d
       -0.10655257 0.18941006 -0.05794373 0.081220955
000110 ea b4 6e 3e 5a 71 ba be e4 ae 96 3e 0a 34 b2 3e
       0.233112 -0.36414605 0.29430306 0.34805328
000120 e9 0e c7 bc ed 3a 97 be cd 62 4d 3d 59 fa 58 3e
       -0.024299102 -0.29537144 0.050143052 0.2118925
000130 4b 74 93 be 77 3c af 3e 72 11 c2 3c 7b 4a c1 bd
       -0.28799662 0.3422582 0.02368996 -0.09438034
000140 4c 68 83 be 24 49 a2 be 76 56 89 be d4 c2 59 3e
       -0.2566551 -0.31696427 -0.26823777 0.21265727
000150 aa 3e 13 be 1a 88 50 be 05 03 5a bd 02 7d 82 3e
       -0.14379373 -0.20364419 -0.053225536 0.25485998
000160 b9 ba bb be 2a bc b2 bd e7 47 59 bd 0c 49 80 3d
       -0.36665896 -0.08727296 -0.053047087 0.062639326
000170 6a 23 6c be f5 35 3f bc 1d 91 8f 3e 3d 76 88 be
       -0.23060384 -0.011670579 0.280404 -0.2665271
000180 3c 17 af 3e 69 09 42 3e b9 bc 9e be 76 df 41 bc
       0.34197414 0.18948902 -0.3100336 -0.011833062
000190 42 e7 65 3e 76 78 14 bd 12 26 48 be 45 f6 50 be
       0.22451499 -0.036247693 -0.19545773 -0.20406444
0001a0 5e 9e 99 bd a8 fe 67 be ff ed 64 3c 51 4a 04 3e
       -0.07500909 -0.22655737 0.013972758 0.12918974
0001b0 8a 4c 1a 3e af f9 d9 bd 89 c0 05 3e 89 08 1e be
       0.1506826 -0.106433265 0.13061728 -0.15432943
0001c0 92 47 ea bd 99 d6 5a be 62 2c 66 be 90 4d 97 3d
       -0.11439432 -0.21370925 -0.22477868 0.07387841
0001d0 a1 1d 35 3e df fa ac 3e 28 6c 5b 3e c7 6f 82 3e
       0.17687084 0.3378515 0.21427977 0.25475904
0001e0 d9 c8 03 3e 30 15 f1 bd ba 69 6b 3e 24 4c 52 be
       0.12869586 -0.11771619 0.2298955 -0.20536858
0001f0 59 0d 5d 3e 0d cf 0f be 68 9c 77 bb 61 63 f7 3d
       0.21587123 -0.14043827 -0.0037782434 0.12079502
000200 24 2e 83 3e 8f 76 89 3c 04 7b 8b 3e e0 10 bf 3e
       0.2562114 0.016780166 0.2724229 0.37317562
000210 04 b9 71 3e 07 17 61 3e b6 44 2e be 5f cb 8a 3e
       0.23605734 0.2198144 -0.17018399 0.27108285
000220 dd af 70 be 95 e6 08 bd 95 f7 09 3e e7 17 1d 3c
       -0.23504587 -0.033423025 0.13473351 0.009588218
000230 76 6f b5 3e d7 c0 a6 bc 0f 2e 45 3e 10 e0 a5 3e
       0.354366 -0.020355625 0.19255851 0.3239751
000240 9d f6 87 3d e8 61 41 be 6f 27 40 3d b5 f8 af be
       0.066388346 -0.18885005 0.046912607 -0.34369436
000250 8c e1 a5 3d 9f da 37 3e be 21 26 bc 49 c7 0c 3e
       0.0809966 0.17954491 -0.010139881 0.13747896
000260 2f 47 95 be 25 21 84 3e dd 90 b4 3d 9b 52 d4 3d
       -0.2915587 0.25806537 0.08816693 0.10367318
000270 02 60 0c be f7 14 bf 3d a7 76 0c be ad 4a a6 3d
       -0.13708499 0.093301706 -0.13717137 0.08119712
000280 f9 c7 be bd 86 b9 96 3e 8d d7 96 3e 39 2b b3 bd
       -0.093154855 0.29438418 0.29461327 -0.087484784
000290 a8 fc ab bd 89 9c 93 3e 9a ff aa 3d 0e 44 bd 3d
       -0.083978 0.28830364 0.083495334 0.09241496
0002a0 20 41 c1 3e bf 95 c7 bd 1c be 86 bd 67 9d ac bd
       0.37745 -0.09745359 -0.06579229 -0.084284596
0002b0 98 01 bf 3e 7a 0f 73 3d 35 15 93 3e 08 dd 16 be
       0.37305903 0.05934093 0.28727117 -0.14732754
0002c0 03 a3 a7 be 4f a4 fb 3d 3f 03 23 be 03 7a 50 3e
       -0.32741556 0.12287199 -0.15919207 0.20359044
0002d0 41 c9 cb bd 82 cd aa 3e 6e c2 3c 3e 17 6a 36 be
       -0.099504955 0.33359915 0.18433544 -0.17813908
0002e0 80 78 ac be 60 59 ba be 83 bf 67 be 2c 9d 01 be
       -0.33685684 -0.36396313 -0.2263165 -0.12657613
0002f0 ae 58 4b be f0 ad 39 3e c9 c5 52 3e 8b 66 94 3d
       -0.19858047 0.18132758 0.20583262 0.07246121
000300 26 3f e7 3d a7 f3 17 be 2c 18 56 be bd 8f 40 3e
       0.112913415 -0.1483904 -0.20907658 0.18804832
000310 a1 4c 6b be f1 97 2d be 5d 4a 08 3d 2f 87 54 3d
       -0.2297845 -0.16952492 0.033274043 0.051886734
000320 f2 a6 b4 be 7d f1 73 bc 32 bf 9c 3d d8 55 d2 b9
       -0.3528362 -0.014889118 0.07653655 -0.0004011828
000330 2f fb fb bd d8 39 49 be 89 ae 7c 3e 50 4c 89 be
       -0.12303769 -0.19650972 0.24675955 -0.26816034
000340 e2 eb 17 be e6 c8 4b be 22 4e 7f 3e 80 36 0f 3b
       -0.14836076 -0.19900855 0.24932149 0.0021852553
000350 05 eb 07 be 82 a4 59 3e 5a 85 65 3e 16 2c 4e 3e
       -0.13273247 0.21254161 0.22414151 0.20134005
000360 fc 1c 9d be 44 e4 1e 3d 9d fc 65 be 76 64 c7 be
       -0.30686176 0.03879191 -0.22459646 -0.38943833
000370 ae 84 d4 3e 63 aa 44 3e 66 b0 41 3e d9 d7 80 be
       0.41507477 0.19205622 0.18914947 -0.2516468
000380 90 fa 1a bd cf a1 5a be 98 a4 a0 be d8 3b a1 be
       -0.03783661 -0.21350788 -0.31375575 -0.3149097
000390 40 96 e4 bd 2f 47 90 bc a4 27 81 3e 22 f2 36 3e
       -0.111614704 -0.017612068 0.25225556 0.17865804
0003a0 93 ae 17 be c5 13 da 3d fb 19 5a 3d b1 58 a2 be
       -0.14812689 0.10648302 0.053247433 -0.3170829
0003b0 93 07 16 3e 9e 35 4d 3e 85 8f 28 be b8 79 53 3d
       0.14651327 0.20039985 -0.16460998 0.051629752
0003c0 e4 da 2c 3e 46 81 b0 be 05 d0 b9 be 7a c1 c0 be
       0.16880375 -0.34473628 -0.3629152 -0.3764761
0003d0 a4 c0 fa 3d 36 ca 18 be 66 1f 1a 3e 62 2a 15 3e
       0.122437745 -0.14920887 0.1505104 0.14566949
0003e0 7f bf 8a be ea 4d cf bd 75 de c6 3c 90 dc b6 bb
       -0.27099225 -0.10122283 0.024275998 -0.0055804923
0003f0 dc 67 a7 bc 93 e9 ec 3d ca 24 98 3c 35 2e 2d 3e
       -0.020435266 0.11567988 0.01857223 0.16912158

fc1.bias f4 [128]
000000 75 68 84 be 1c aa 97 be 14 1d b3 3e fa d1 8e be
       -0.25860944 -0.2962197 0.34983122 -0.27894574
000010 6f 6f c2 bd 63 ac af 3e 6b 6d 86 bd 98 84 88 3e
       -0.094939105 0.34311208 -0.065638386 0.2666366
000020 2b f9 83 3e 61 d4 b4 be de 9f b8 3e 2d be ab be
       0.25776038 -0.35318282 0.3605947 -0.3354353
000030 92 e7 01 3e 4b 3a 1e bd 2e ee 23 3d 78 5d 6c 3e
       0.12685993 -0.03862981 0.040022068 0.2308253
000040 36 6f eb bd 0f 8c 06 be 5f 90 5e be d6 d2 7d 3e
       -0.11495821 -0.13139366 -0.2173476 0.24787459
000050 44 d5 0e 3e 5d e6 61 3e e0 33 58 3e 72 c0 df bc
       0.13948542 0.22060533 0.21113539 -0.027313445
000060 77 b7 5f be e4 06 8e be e3 d1 0f be e3 85 2c be
       -0.2184733 -0.27739632 -0.14044909 -0.16847949
000070 75 c3 1b be 25 ce b1 3d 92 1c ba be 43 58 75 be
       -0.1521128 0.08681897 -0.36349922 -0.2395945
000080 fa 83 87 3e a4 25 99 be de 92 1b bb b9 ff 51 3e
       0.26467878 -0.2991153 -0.0023738663 0.20507707
000090 15 e0 07 be 33 99 99 3d d1 d0 20 3e 4e ef 1a 3e
       -0.13269074 0.074999236 0.15704657 0.1513035
0000a0 88 c9 ab 3d 2f c6 00 be 34 5a 4c be 19 f5 6a 3e
       0.083880484 -0.12575601 -0.19956285 0.2294506
0000b0 f8 5a 86 be d7 ec b4 3e 7c 9c 71 3e 99 12 ce 3d
       -0.2624128 0.35336944 0.2359485 0.10062141
0000c0 5e 52 99 3e 16 37 8a be dc 87 f6 3d 72 70 42 be
       0.29945654 -0.26995152 0.12037632 -0.18988207
0000d0 c0 83 71 3e c8 dc 9a bd 32 8c ab 3e 04 ed 87 be
       0.23585415 -0.07561642 0.33505398 -0.26548016
0000e0 84 88 48 be 79 60 91 3e d9 f4 ca bd 2c a8 ae 3c
       -0.19583327 0.28393915 -0.09909982 0.021320425
0000f0 e9 c8 ca 3d 00 00 14 3e 10 04 1c 3e d8 97 06 3e
       0.09901602 0.14453125 0.15235925 0.13143861
000100 e7 32 3c bd 82 9f 5d 3d 82 b7 a9 3e e1 9d cf be
       -0.04594698 0.054107197 0.33147818 -0.4055014
000110 12 f3 86 3e 6e 3c 84 3d fb 29 a3 be cd 9b 23 bd
       0.26357323 0.064568385 -0.31867966 -0.039943505
000120 61 51 9b be 8d fe 92 3e 4c 38 b7 be a7 33 3e bd
       -0.30335525 0.28709832 -0.3578514 -0.04643598
000130 a3 b9 82 3e 05 9b 9c 3d a5 32 ac be 57 59 8e bb
       0.25532255 0.07646755 -0.3363239 -0.0043441462
000140 8c 30 b3 3e 89 54 43 3e 13 75 8b 3c 49 ac 85 be
       0.34997976 0.19075216 0.017023599 -0.26108006
000150 df e6 93 3e a7 df 92 3e 4f 6d b7 3e 8b 80 b5 3e
       0.28887078 0.28686258 0.35825583 0.35449633
000160 e3 04 be 3e d5 e5 d1 3d 24 d5 58 be 16 55 5a 3e
       0.37113103 0.10248915 -0.21175057 0.2132152
000170 fe 8a f8 bd 6f 97 ac bc 5b a1 41 3e 7d 64 27 3e
       -0.12135886 -0.021068303 0.18909208 0.16346927
000180 c8 2e 16 be 25 03 6a be 5a 1b 25 be e0 83 8a 3d
       -0.14666283 -0.22852762 -0.16123715 0.067634344
000190 99 d2 95 be d5 be 92 be bd 79 b6 bc 22 a9 af be
       -0.29262236 -0.28661218 -0.022274846 -0.34308726
0001a0 95 aa 11 3e b5 9c 08 bd 30 0d db 3c 1d a8 05 3e
       0.14225228 -0.033352572 0.026739687 0.13052411
0001b0 95 57 a2 be 7e 39 e3 bd 75 89 1a 3e 79 49 92 3e
       -0.31707445 -0.1109495 0.15091498 0.2857168
0001c0 53 02 a9 3e 23 86 ae 3e 23 e4 bd 3d 93 52 b4 bd
       0.33009586 0.34086713 0.09272029 -0.08804812
0001d0 9e 56 5e be e5 e3 40 bd bd 76 2f 3d 70 fe 56 3e
       -0.2171273 -0.047092337 0.042837847 0.20995498
0001e0 f3 bb 01 bd 60 94 00 be c0 44 c5 bc 67 e9 a7 3e
       -0.031673383 -0.125566 -0.024080634 0.3279526
0001f0 b9 89 8b 3e ec 90 bd 3e e9 a8 6e be 6f 9f 19 be
       0.27253512 0.3702463 -0.23306622 -0.15002225

fc2.weight f4 [128, 128]
000000 86 94 66 3d e0 37 55 3c ef d0 25 bd 89 6c ae 3d
       0.056293987 0.01301381 -0.040482458 0.08516795
000010 06 0b 2f 3d b6 90 2b bd 08 ff 4e bc c1 85 92 3d
       0.042735122 -0.041886054 -0.012634046 0.07154418
000020 cc 57 95 3c ee 88 39 3d db 2d 80 3d d2 cd 9a bd
       0.018230341 0.045296602 0.06258746 -0.07558788
000030 60 be 99 3c cc 7d 9f 3c bb e2 9d 3d 4c 21 ec 3c
       0.018767536 0.019469164 0.07709261 0.028824471
000040 af 72 82 3d bd 24 54 bd 24 c2 b9 bc 8d a9 39 bd
       0.063695304 -0.05179285 -0.022675581 -0.04532771
000050 5c b7 9e bd b0 a5 fd 3c d0 d8 cc bc 70 be 38 bc
       -0.07749817 0.030962795 -0.025005728 -0.011275873
000060 00 8a fa 3a c3 dc 02 bd a0 fc cb bb 56 ab 12 3d
       0.0019114614 -0.031948816 -0.0062251836 0.03580793
000070 3a 35 5e 3d 2f 28 35 bd 0e 27 0d bd 38 5f 10 3d
       0.05424998 -0.044227775 -0.034461074 0.035247058
000080 85 06 8b 3d 63 c0 2b bd e7 3e 8c 3d a7 57 1d bd
       0.06788353 -0.04193152 0.06847935 -0.03841367
000090 0e db f3 bc 30 e3 91 bc 92 a5 17 3d b0 9b 97 bb
       -0.02976754 -0.017808527 0.037023135 -0.0046267137
0000a0 f8 75 04 3d 7e 34 51 3d 37 e4 36 bd fc b3 08 3d
       0.032339066 0.05107545 -0.044651236 0.03337477
0000b0 88 bd 63 bc 14 0b a2 bc d4 9d a5 bc 68 cd 95 3c
       -0.013900168 -0.019780673 -0.02021686 0.018286422
0000c0 10 47 07 bd 75 9b a7 3d 68 e8 3f 3c 65 67 96 3d
       -0.033026755 0.08183948 0.011713125 0.0734394
0000d0 40 9b 27 3b 12 f3 e7 bc 64 d3 99 bc 06 6e 3f bd
       0.0025574714 -0.028314147 -0.018777557 -0.046735786
0000e0 10 d8 ba bb 71 28 9f 3d 00 ba 33 bb e3 66 8b 3d
       -0.005702026 0.077713855 -0.0027424097 0.068067335
0000f0 e1 e7 ad bd bc 31 9c bc 3e 8b 35 3d b4 9e 02 3d
       -0.08491493 -0.019066684 0.044322245 0.031889632
000100 b0 37 82 3b 7e 47 3c bd 88 42 78 bc 4c 64 d7 bc
       0.0039739236 -0.045966618 -0.015152581 -0.026292942
000110 10 3c 08 bd 40 4a 87 bb 96 13 d5 bc 54 ed b9 bc
       -0.033260405 -0.0041287243 -0.026010316 -0.022696175
000120 88 bc 24 bd 30 b2 b5 bc f0 8b a8 bc ec 94 ba 3c
       -0.04021886 -0.022179693 -0.02057454 0.02277609
000130 a6 e5 e5 bc d4 f4 d9 3c 20 e5 50 bc 38 da 9e bd
       -0.028063606 0.026606001 -0.01274994 -0.07756466
000140 58 2c 95 3c 72 90 83 bd 0d 18 99 3d 9c 88 1d bd
       0.018209621 -0.06424035 0.074752904 -0.03846036
000150 16 10 1e 3d 0a 18 e0 bc b5 89 03 bd 4e 74 a8 bd
       0.03858956 -0.027355213 -0.03211375 -0.08225308
000160 65 ce a5 bd 51 85 82 3d 38 67 6b bc 7d 95 a4 bd
       -0.08096007 0.06373084 -0.014367871 -0.08036325
000170 14 d9 94 bd 80 34 d2 bc f8 4d 75 bc 80 58 f7 3c
       -0.07267967 -0.0256598 -0.0149722025 0.030193567
000180 80 3d 31 ba 38 07 a1 bc f8 25 81 bd 48 c7 9a bd
       -0.00067611784 -0.019656762 -0.0630607 -0.07557541
000190 50 c7 49 3c 16 31 f2 bc 80 2b ad 3b 93 cc a3 bd
       0.012315586 -0.029564422 0.0052847266 -0.07998004
0001a0 53 4c 24 bd 5c 72 14 bd 12 74 03 3d 97 c2 92 3d
       -0.04011185 -0.036241874 0.032093115 0.07166021
0001b0 5d 89 64 bd 00 eb d2 3a c0 d1 53 bc 30 5c 18 3c
       -0.055795062 0.0016091764 -0.012928426 0.009299323
0001c0 a4 b1 bd 3c 80 5f 22 bb dc 96 50 bd 8f 4b 85 bd
       0.023155995 -0.002477616 -0.05092512 -0.06508552
0001d0 07 bc a1 3d e0 24 ec bb 8e ff 68 3d 84 ca 94 bd
       0.078971915 -0.0072065443 0.05688434 -0.07265189
0001e0 48 0f 1f 3c 2b 7e 60 bd f6 f1 63 3d 45 e8 4f bd
       0.009708233 -0.054807823 0.055650674 -0.05075862
0001f0 49 fa 93 3d 62 16 09 3d 5f d5 98 bd e9 e5 8a 3d
       0.072254725 0.03346861 -0.07462572 0.06782133
000200 70 4a de bb 47 0c 9f 3d bb 82 d1 bc 60 39 d1 3b
       -0.006783776 0.077660136 -0.025575032 0.0063850135
000210 00 7f 7a 3b ba 19 97 3d 45 91 47 bd 1a 25 e0 3c
       0.003822267 0.07377954 -0.048722524 0.027361441
000220 34 f7 f2 bc 58 18 8a bd 1a 8a 57 3d 47 8f 90 bd
       -0.029658891 -0.067429245 0.05262194 -0.07058578
000230 73 ed 7d bd f4 0d 96 bd ca 41 a8 3d b2 3d 4a 3d
       -0.061994027 -0.0732688 0.08215673 0.049375243
000240 e9 c5 f4 bc df 8e 71 bd 16 7a 14 3d 8d 63 61 3d
       -0.029879527 -0.058974143 0.036249243 0.05502658
000250 71 d6 09 bb 89 b7 ad bd c3 ce 2c bc f4 35 9c bc
       -0.0021032358 -0.08482272 -0.010547343 -0.019068696
000260 49 f8 2a 3d bd e5 85 3d b2 06 16 3d e9 2e c1 bc
       0.04174069 0.0653796 0.03662748 -0.023581939
000270 42 46 a7 3c 32 61 e3 ba c3 63 2c bd 84 e6 9e 3d
       0.020419244 -0.0017347692 -0.042087328 0.07758811
000280 25 ff 03 3d 65 b3 00 3d 60 18 59 3c 02 b2 83 bd
       0.032225747 0.031421084 0.01325044 -0.06430437
000290 f3 c6 bc bd f6 b4 4a 3d bd 69 88 bd 3d fc aa 3a
       -0.09217634 0.049488984 -0.06660793 0.0013045144
0002a0 40 f0 83 3d 9a 77 a3 bd 51 22 b5 3c a7 9b fd 3c
       0.064423084 -0.079817966 0.02211109 0.03095801
0002b0 72 19 63 3d bc 3a 96 bd 42 30 c4 bd 42 fd 4a bd
       0.05544419 -0.073354214 -0.09579517 -0.04955793
0002c0 a5 4d 43 bd 5a f6 a5 bd 3d 3a 0d bd e5 80 06 bd
       -0.04768147 -0.081036285 -0.03447937 -0.032837767
0002d0 70 22 b3 bc ba 1d 60 3d 1b cb 88 bd 92 d4 16 bd
       -0.021867007 0.05471585 -0.06679364 -0.036823817
0002e0 a1 14 a3 bd 95 08 ac 39 c8 7a be bd 0a 84 ac bd
       -0.07962919 0.0003281279 -0.093007624 -0.08423622
0002f0 0b bd b2 3b d4 ca af bd f8 a5 d3 3c 74 c8 4c bd
       0.0054546646 -0.08583608 0.025835976 -0.049995854
000300 46 cc c2 3c f0 9a 48 3d 16 cc 11 3d b2 cb c6 3c
       0.023779046 0.048975885 0.035595022 0.024267051
000310 11 53 8e bd 71 88 7b bd c5 9b b1 3d 40 69 f8 3a
       -0.069494374 -0.061409418 0.08672289 0.0018952265
000320 ea 97 73 3d aa c3 91 bd bc 85 ef 3c fb 30 cd bc
       0.05947105 -0.07117398 0.029238574 -0.02504777
000330 1d 36 ff 3c 00 a7 89 bd 3c 64 9a 3c 38 2e 8f bd
       0.031153733 -0.06721306 0.018846624 -0.069912374
000340 ea ce a8 3c d6 e2 b2 bd 20 9c 57 3c 97 ce a8 3d
       0.020606477 -0.08734672 0.013159782 0.08242529
000350 3a 64 0d 3d 6e af 58 bd 53 25 10 bd 1b 05 9c bd
       0.03451941 -0.052901678 -0.035191845 -0.07618161
000360 b3 2e 4b 3d f1 d8 a8 bc dc 4e ca 3c ac 12 a3 bd
       0.049605083 -0.020611258 0.024695806 -0.07962546
000370 c5 74 01 3d 5e 03 ef 3b 75 14 13 bd 0b 72 33 3d
       0.0316055 0.0072941026 -0.03590818 0.04380993
000380 39 ef 43 3d e2 08 31 bd b3 a8 17 bc 5a 56 9f bd
       0.047835562 -0.043221362 -0.00925653 -0.07780142
000390 78 22 c9 3c 98 17 9e bd f8 84 1a 3c 5e b2 24 3d
       0.024552569 -0.07719344 0.009431116 0.040209167
0003a0 3a 70 45 3d 68 92 99 bc ec 50 04 3d 03 77 08 3d
       0.04820273 -0.01874657 0.032303736 0.033316623
0003b0 b4 8f 82 3d b6 ce 9e 3d 7e ab 9c 3d 74 48 62 bd
       0.063750654 0.07754271 0.07649897 -0.055244878
0003c0 f1 3a 88 3b 40 a2 c2 bd 1c 18 fb 3c 1b c9 3e 3d
       0.004157417 -0.09503603 0.030651145 0.046578508
0003d0 8a 0d 22 3d 04 59 11 3c 3e a6 ad bd 6f 12 1b bd
       0.039563693 0.008871321 -0.08478974 -0.037859377
0003e0 10 b4 a0 3c 65 04 9c 3d da bb 08 bd 7a 9f 81 bc
       0.01961711 0.07618026 -0.033382274 -0.015823115
0003f0 23 6b 0b 3d d2 ba 07 bd 28 9b 76 3c 40 e2 b1 bc
       0.03403772 -0.03313715 0.015051641 -0.02171433

fc2.bias f4 [128]
000000 d6 bc 31 3d 7c 42 ab bc a0 6b 60 bc 4c 3a 2a 3d
       0.04339298 -0.020905726 -0.013697535 0.041559502
000010 08 5d 2b 3c 6f 3d d5 bd e4 a6 54 bd ff 3a 6c 3d
       0.010459192 -0.10412108 -0.05191697 0.05767345
000020 6e 04 41 bd 6a 25 55 3d f0 4e bc bd 87 20 a5 bc
       -0.047123365 0.052037634 -0.09194744 -0.020157112
000030 e9 f7 17 3b 60 31 a4 bd cd d7 84 bd ec 95 f0 3c
       0.0023188537 -0.0801723 -0.06486473 0.029368363
000040 41 e8 fb 3c 02 0f 02 bd 58 64 73 bc c2 82 f1 3b
       0.030750396 -0.031752594 -0.014855467 0.007370324
000050 51 44 b5 bd c8 c1 b1 3d fe dd ef 3c cd b7 fb bc
       -0.08850921 0.08679539 0.029280659 -0.030727291
000060 e0 65 8f bc 82 0f 8f bd 1a 68 83 3d 50 54 81 bb
       -0.017504632 -0.0698538 0.0641634 -0.0039468184
000070 b6 fa 14 bd f8 e4 df bc e4 e4 3c bd ba 1e 6c bd
       -0.03637191 -0.02733086 -0.046116725 -0.05764649
000080 19 21 06 3d 5a cd 87 bd b4 e8 b4 3c da 27 01 3d
       0.032746408 -0.066309646 0.022083618 0.031532146
000090 70 38 de 3c b3 5e 82 3d 3d 8a c3 bd 70 ec 9c bc
       0.02712652 0.06365719 -0.09547851 -0.019155711
0000a0 d8 db 75 3b c4 12 d6 3c e0 c4 a4 bd c1 6d 6c 3d
       0.003751507 0.026131995 -0.080453634 0.057721857
0000b0 ee 1d 27 3b 94 64 2c bd e7 04 7d bd 06 f1 2b bd
       0.0025500017 -0.042088106 -0.061772253 -0.041977905
0000c0 f0 35 a9 3c 65 ae 4b 3b 1d 65 d2 3d 6b 25 80 3d
       0.020655602 0.003107929 0.10273192 0.06257137
0000d0 58 fd 59 bc e1 bd 81 bc 8a 84 e8 bb 28 d7 3b bd
       -0.013305031 -0.015837612 -0.007095878 -0.045859486
0000e0 34 4a ef 3c 27 16 b4 bd 70 35 51 bd 6b 5a d7 bc
       0.029210187 -0.08793288 -0.051076353 -0.026288232
0000f0 5f 73 9a 3b 04 44 a3 bc 2b 5b 68 bd 6f 73 9b bd
       0.0047134603 -0.019929893 -0.05672757 -0.075903766
000100 ff 8c 10 3d ef 04 a1 3d 9c 7c 04 bd 23 4b e1 3b
       0.035290714 0.07862269 -0.0323454 0.006875412
000110 d0 ea 15 3d 8e d4 ae bd f6 dc b8 3d 84 ea b1 3c
       0.036600888 -0.08536635 0.0902652 0.021718271
000120 b1 e8 70 3d 88 13 8c 3c bc eb 7d 3d 98 7c 9d bd
       0.05881566 0.017099157 0.061992392 -0.0768978
000130 9d 7a af bb 19 9f 33 bd dc 79 e9 bc d9 14 54 3d
       -0.005355193 -0.0438529 -0.02850049 0.051777694
000140 42 04 eb bc a3 db 17 bd 9b 2f 8c 3d 02 59 88 bd
       -0.028688554 -0.037074696 0.068450175 -0.06657602
000150 5e cb 28 3d ae 0b a8 bd 50 78 85 bd c0 c7 80 ba
       0.04120957 -0.08205353 -0.065170884 -0.0009825155
000160 de c9 bc bd b2 28 6e 3d 86 52 89 bd 49 df ce 3d
       -0.092181906 0.05814428 -0.06705193 0.10101182
000170 5e 6a a8 bc 02 1f 84 3d 93 08 ab bd a2 03 86 bd
       -0.020558532 0.06451227 -0.08351245 -0.06543662
000180 df 74 94 bd b1 a7 0c 3c dd e5 53 3d 6c 82 2e bd
       -0.07248854 0.008584903 0.051732887 -0.04260485
000190 8b 29 45 3d 68 81 40 3d bc 2d 81 bd 86 f6 4d bd
       0.04813532 0.04699841 -0.06307551 -0.05028393
0001a0 1b f6 b3 bd 26 2c 26 bd 20 c0 fe 3c 48 d1 a6 bd
       -0.08787175 -0.040569447 0.031097472 -0.08145386
0001b0 42 9d af bd 29 e3 80 3d b4 91 06 3e 0f 53 7b 3d
       -0.085749164 0.06293327 0.13141519 0.061358508
0001c0 fe 25 c9 3b b6 e0 91 bc fe 09 2c bd 4b 02 ad 3d
       0.006138562 -0.017807346 -0.042001717 0.08447703
0001d0 35 08 73 bd 2e aa 8d 3d 5f 37 99 bd 00 e1 c5 bd
       -0.059334 0.06917225 -0.07481264 -0.09662056
0001e0 bd 7b a1 3d 20 38 59 3c 18 79 99 bc 7d 77 b5 bd
       0.07884929 0.01325801 -0.0187345 -0.08860681
0001f0 48 78 13 bd 27 a1 ac 3a ab 0f b6 bd 80 fe 27 bc
       -0.03600338 0.0013170586 -0.08889707 -0.010253549

fc3.weight f4 [1, 128]
000000 18 55 54 3c c5 e6 24 bd b0 f1 a2 bd 93 4c 56 bd
       0.012959741 -0.04025914 -0.079562545 -0.05231912
000010 45 14 5b bd 40 59 1b 3d 40 1e ac 3d f8 39 1b 3d
       -0.053486127 0.037926912 0.08404207 0.03789708
000020 ab 13 3a bd cb 2b 92 bd 48 2e 99 bd f2 44 31 3d
       -0.045428913 -0.07137259 -0.074795306 0.043278642
000030 d4 c7 ac bd e1 36 2d 3d 58 06 f1 3c f1 f6 8a bd
       -0.08436552 0.042288665 0.02942197 -0.067853816
000040 5c b4 8a bd 13 3d a1 3d 2c 47 b0 bc 91 25 26 3d
       -0.06772682 0.07872977 -0.021518312 0.04056317
000050 40 b9 b3 3c 39 10 ea 3d f3 4f 1f bd 08 99 6b bc
       0.02193892 0.114288755 -0.038894605 -0.014379747
000060 f0 31 5a bc 64 0a 27 3d a0 2f d1 bc e8 e7 9d bd
       -0.01331757 0.040781394 -0.025535405 -0.07710248
000070 c5 2a e9 3d 2c 69 e7 3b 59 55 2c 3d 8a 81 b8 3d
       0.11385111 0.007062098 0.04207358 0.090090826
000080 5f 5b dd 3c eb 5e 73 bd d1 fb 18 3d ac dc 3f 3d
       0.027021108 -0.059416693 0.037349526 0.04684131
000090 c2 79 89 bc 9c 6d 4e 3c dd 29 84 3d b4 57 3d bd
       -0.016781691 0.012599375 0.06453297 -0.04622622
0000a0 1d 6f d6 3d e7 2b 51 bd 32 f5 fb 3b f4 29 f2 3c
       0.10470412 -0.05106726 0.0076891417 0.02956102
0000b0 66 c9 63 bd 11 a1 84 3d 30 9e 2f 3d db 6f 0b bc
       -0.05561199 0.064760335 0.04287547 -0.008510555
0000c0 e1 a0 5d bd 45 e2 78 3d 11 00 aa 3d b0 8a a0 3b
       -0.054108504 0.060762662 0.08300794 0.0048993453
0000d0 00 74 33 3b 36 d0 f6 3c 93 98 1f 3d bc c2 86 3b
       0.0027382374 0.03012858 0.038963865 0.0041125696
0000e0 f8 a1 03 bd 8e bd 59 bc 75 35 a2 bd c3 83 52 bc
       -0.032136887 -0.013289822 -0.07920352 -0.012848797
0000f0 fa f6 89 3d 55 ed 8d bd 3e e6 1d bd 92 e3 38 3d
       0.0673656 -0.06930033 -0.038549654 0.045138903
000100 d3 38 aa bb d9 96 fa bc 62 c8 8e bd 39 a4 4c bd
       -0.0051947623 -0.030589508 -0.06971814 -0.049961302
000110 6e a7 40 3c df 65 1e 3d 19 1e dd 3c a1 d4 84 3d
       0.011758668 0.03867137 0.02699189 0.06485868
000120 c3 53 66 bd 4a 91 62 3d 7b 2c de bc 36 79 69 3d
       -0.056232225 0.05531434 -0.02712082 0.05700036
000130 e3 09 1a bd b5 ed a7 3d d6 58 33 bd 2e c9 7b bd
       -0.037607085 0.08199636 -0.043785892 -0.061471157
000140 64 90 61 bd 9b 8b 7b 3d de 11 64 bc e5 2d d6 ba
       -0.055069342 0.061412435 -0.0139202755 -0.0016340582
000150 55 f4 55 bc 62 6b bb bc df 2c 1b bd 17 93 81 bd
       -0.013058742 -0.022878353 -0.03788459 -0.06326883
000160 9c 14 8f 3d 2c 33 05 bd a0 47 24 bc 5b 24 b4 3d
       0.06986353 -0.032519504 -0.010026842 0.08795997
000170 e3 63 99 3d 38 2c 99 3d 47 8c ba 3c 8f 20 83 bd
       0.07489755 0.07479137 0.022771968 -0.064026944
000180 a6 be c6 bb 19 4a df 3d ba 8b 4d 3b 2f 74 36 bd
       -0.0060652075 0.10902805 0.00313638 -0.044544395
000190 19 25 e5 3d de f5 29 3a 58 28 0a 3a b9 64 36 3c
       0.111887164 0.00064834754 0.0005270294 0.011132413
0001a0 9e da 81 bd f2 cf 83 3d 24 68 ae bb 03 ad 98 3d
       -0.06340526 0.06436147 -0.005322473 0.07454874
0001b0 a6 08 fd bc eb f6 69 3d 9b e5 e6 3d bd 35 97 bd
       -0.030887913 0.057120245 0.112742625 -0.07383297
0001c0 8a e6 a4 bd ca b4 50 3d 3c 4a ac bc 36 1e 63 3d
       -0.08051784 0.050953664 -0.021031491 0.055448733
0001d0 84 ea 10 3c 55 62 ba 3c 3f 3d 9d 3c f0 4b 37 bd
       0.008844975 0.022751966 0.019194243 -0.044750154
0001e0 d0 df 0a 3c e7 71 51 3c a6 97 01 3d aa 3d 90 bd
       0.008476213 0.012783504 0.031638764 -0.070430115
0001f0 ca 46 44 3d bc 8f 57 bd 86 63 39 bd 98 fa b3 3c
       0.047919072 -0.05262731 -0.04526093 0.021970078
