cartpole-implementation/best_meta_network.pth (torch, 73805 bytes, 5 tensors)

fc1.weight f4 [128, 7]
000000 92 9a 59 3e 2c 52 98 3d c0 ab 78 bc 51 d3 a6 be
       0.2125037 0.07437548 -0.015177667 -0.32583097
000010 6e ab 53 3e 98 4d a9 be d0 cf 1f bd 48 d8 c7 3d
       0.20670864 -0.33067012 -0.039016545 0.09758049
000020 89 72 d8 3e de b1 45 be 69 29 92 3d d2 ac 55 3e
       0.42274883 -0.19306132 0.071368046 0.20866707
000030 99 cc 91 3e 25 30 88 3e ee 91 64 3e d0 a6 85 3e
       0.28476408 0.2659923 0.22321293 0.2610383
000040 e0 84 aa 3e dd ff ae 3e 96 dc 5e bc 60 05 b3 3e
       0.333045 0.34179583 -0.0136023965 0.34965038
000050 85 82 a7 bd fd e8 8c 3e 95 ec 7d 3e 93 db f1 bd
       -0.081791915 0.27521506 0.2479728 -0.118094586
000060 4b e0 9e bd 0f 8f a6 be f3 94 a8 3d 66 9f 2c bd
       -0.07757624 -0.3253102 0.08231535 -0.0421442
000070 22 d4 79 3e c6 5c a6 3e 44 f9 b4 3e fc d4 77 39
       0.24397328 0.32492656 0.35346425 0.00023635098
000080 32 dd 8f 3e de 89 8c bd ac b2 2f 3d ab a1 2a be
       0.28098446 -0.068622336 0.042895004 -0.16663234
000090 da d4 ab 3e 82 92 28 3c 63 e8 36 bd ee 35 08 be
       0.3356083 0.010288836 -0.044655215 -0.13301823
0000a0 8d 72 88 3e 8c 71 87 3c b5 97 81 3e 1b 87 8d be
       0.26649895 0.016533636 0.25311056 -0.2764214
0000b0 2f 66 92 be 65 9f e5 bd 47 f5 b9 3e 0d 50 a8 be
       -0.28593585 -0.11212043 0.36319944 -0.32873574
0000c0 61 f2 05 3e 00 3d 16 be af 5e ec 3d 41 b0 ab be
       0.13080741 -0.14671707 0.11541497 -0.3353291
0000d0 77 93 5a 3e e7 49 22 3d 71 5d 84 be 1a 9c b1 3e
       0.21345316 0.03962126 -0.2585254 0.3468941
0000e0 f6 b7 09 be 6d 00 92 bd 8e bf b1 be 7f f7 31 3e
       -0.13449082 -0.071289875 -0.34716457 0.17379569
0000f0 b2 00 10 3e 30 b4 54 be 69 4e b4 3e 14 b5 aa 3d
       0.14062765 -0.20771861 0.35216072 0.08335319
000100 3c 38 da bd b6 f4 41 3e 68 56 6d bd 2c 57 a6 3d
       -0.10655257 0.18941006 -0.05794373 0.081220955
000110 ea b4 6e 3e 5a 71 ba be 65 63 8a 3e da c7 a3 3e
       0.233112 -0.36414605 0.27028957 0.31988412
000120 57 72 90 3c 65 9c 9c be c1 b5 a4 3d 83 64 4f 3e
       0.017632646 -0.3058807 0.08042479 0.20253186
000130 f0 ef 98 be 45 a1 b5 3e f1 73 0e 3d e3 44 df bd
       -0.29870558 0.354746 0.03477854 -0.10901811
000140 94 2f 7c be 6a d5 a7 be 76 56 89 be dc 72 64 3e
       -0.24627525 -0.3278001 -0.26823777 0.2230944
000150 75 2b 26 be b3 c4 68 be 64 13 9f bd 6a a3 a1 3e
       -0.16227515 -0.22731285 -0.0776737 0.31569988
000160 1e 55 b4 be bb 29 52 bd 3c 00 fe 3b 54 ef 89 3d
       -0.3522119 -0.05130933 0.007751493 0.06735101
000170 3b 83 81 be 7f 95 11 bd b6 50 bb 3e 77 58 80 be
       -0.25295433 -0.03554296 0.36585015 -0.25067493
000180 22 db ca 3e 79 be 8c 3e ab e2 a0 be 5d 5c fd bb
       0.3962031 0.2748907 -0.31422934 -0.007731958
000190 87 ad 53 3e ae 70 86 3d 45 23 71 be 3b 97 7b be
       0.20671664 0.06564461 -0.2354861 -0.24569409
0001a0 36 61 dc 3c fc a8 86 be a2 f5 c0 bc 2f bf 03 3e
       0.026901823 -0.263008 -0.023554627 0.128659
0001b0 51 10 36 3e 1e 0c a0 bd cf f8 0c 3e 84 52 02 be
       0.17779662 -0.07814811 0.13766788 -0.1272679
0001c0 ae f6 23 be e1 14 73 be 29 fb 81 be 69 15 c3 3d
       -0.1601207 -0.23738433 -0.25386932 0.09525568
0001d0 77 23 3f 3e 48 26 a9 3e 65 4f 71 3e 45 d8 73 3e
       0.18665873 0.3303702 0.23565443 0.23812969
0001e0 d2 d4 e8 3d 02 8b a5 bd 95 a1 5d 3e 5b dc 41 be
       0.11368717 -0.08083154 0.2164367 -0.18931715
0001f0 bd aa 49 3e 87 a9 1d be c7 18 7d 3c 2d e2 10 3e
       0.19694038 -0.15396701 0.015447802 0.14148779
000200 68 f2 4c 3e 34 fb 45 3c d8 ea 7a 3e b1 e3 be 3e
       0.20014346 0.012083817 0.24503648 0.3728309
000210 f3 fa 6c 3e b8 7e 3a 3e 0a d4 34 be ea c9 79 3e
       0.23142605 0.18212402 -0.17659011 0.2439343
000220 37 66 81 be 42 a5 27 bd 00 2f 09 3e 49 3a 04 bc
       -0.25273296 -0.040929087 0.13396835 -0.008070537
000230 98 06 aa 3e 2d e7 1e bd 71 30 26 3e 1e f5 bc 3e
       0.33208156 -0.038794685 0.16229416 0.3690576
000240 15 31 99 3d d9 c9 2a be 29 4e bc 3d 2b a6 b1 be
       0.07480065 -0.16678561 0.09194595 -0.3469709
000250 88 7c d4 3d 78 d1 0e 3e 6c a8 62 bd 0a b2 dd 3d
       0.10375315 0.13947093 -0.0553364 0.10824974
000260 3e ec ae be e6 fa 59 3e 77 fd b4 3d ce b8 b9 3d
       -0.34164613 0.21287116 0.08837407 0.09068452
000270 fa bd b8 bd 2a 0d cb 3d da 2a ef bd 98 de 97 3d
       -0.0902061 0.0991462 -0.11678095 0.07415503
000280 ea 04 b3 bd 22 5a a5 3e 0c 03 8c 3e 24 5e cf bd
       -0.08741172 0.32295328 0.27346075 -0.10125378
000290 ea bc f3 bc 8e 29 9f 3e ac 48 f9 3d d4 11 16 3e
       -0.029753167 0.3108639 0.12172064 0.14655238
0002a0 0e 38 a5 3e 17 54 b7 bd 1c 8a 69 bd e1 ef 03 be
       0.3226933 -0.08951586 -0.057016477 -0.12884475
0002b0 f7 ff b3 3e 6f 3c 88 bb cb 9a 78 3e e0 65 a6 bd
       0.35156223 -0.004157595 0.24277799 -0.081249
0002c0 36 c7 9b be 84 cf 22 3e ba 40 32 be e6 67 5e 3e
       -0.30425423 0.15899473 -0.17407504 0.21719322
0002d0 d4 4f 0b be a6 2c a3 3e 6e c2 3c 3e 17 6a 36 be
       -0.13604671 0.31870002 0.18433544 -0.17813908
0002e0 80 78 ac be 60 59 ba be 83 bf 67 be 2c 9d 01 be
       -0.33685684 -0.36396313 -0.2263165 -0.12657613
0002f0 ae 58 4b be 4d 23 48 3e ec 78 2c 3e 6c e2 05 3e
       -0.19858047 0.19544716 0.16843003 0.13074654
000300 39 69 cb 3d 58 49 d0 bd a4 02 80 be c0 88 32 3e
       0.09932179 -0.10170239 -0.25002015 0.17434978
000310 16 dc 85 be f9 88 4a be cc 73 6b 3d 26 77 56 3d
       -0.26144475 -0.19778813 0.05748348 0.052359723
000320 35 7c aa be a5 5e 19 bd 29 82 9d 3d 62 08 21 bd
       -0.33297887 -0.037443776 0.07690842 -0.039314635
000330 ce 29 06 be 55 8d 46 be 99 b3 6f 3e bd cb 84 be
       -0.13101885 -0.19389851 0.23408355 -0.2593669
000340 94 22 24 be fc c7 58 be c6 59 7a 3e 60 3c 14 bb
       -0.16028816 -0.21170038 0.24448308 -0.0022618994
000350 79 46 0a be 45 f0 51 3e 5f 66 5e 3e bb 71 46 3e
       -0.13503446 0.20501812 0.21718739 0.19379322
000360 2c fa a0 be de 88 fc 3c d2 2d 40 be cc 69 d7 be
       -0.31440866 0.030826982 -0.18767479 -0.42072904
000370 7a 17 d4 3e a3 08 10 3e 02 1e 55 3e 9d 4e 81 be
       0.4142416 0.14065795 0.20812228 -0.2525529
000380 7e 54 e1 bd 91 ab 80 be db ff ab be e3 0e 9e be
       -0.11002444 -0.25130895 -0.3359364 -0.30870733
000390 8b a1 cd bd 19 27 9c bc ee 4e 84 3e 48 da 4a 3e
       -0.100405775 -0.019061612 0.2584147 0.1980983
0003a0 70 cf 17 be 7a 02 f0 3d e7 f1 c2 3d 4b 74 9f be
       -0.14825225 0.11719222 0.095187955 -0.31143412
0003b0 df ea 3e 3e 86 08 78 3e 62 d6 1d be f7 88 49 3d
       0.18644284 0.24222001 -0.15413812 0.049202885
0003c0 c0 53 30 3e 9f 1a af be d6 b3 b8 be 7a c1 c0 be
       0.17219448 -0.34199998 -0.36074704 -0.3764761
0003d0 1e 38 00 3e 3c 81 38 be a6 49 0e 3e 4e 2b 0f 3e
       0.12521407 -0.18018049 0.13895282 0.13981363
0003e0 96 d0 8e be 23 ca c7 bd b5 99 c1 3c df b3 5f bc
       -0.27893513 -0.097553514 0.023632864 -0.013653724
0003f0 90 07 34 bc 6a 3f d4 3d 9f ce 8b 3d 94 91 4d 3e
       -0.010988131 0.10363658 0.06826519 0.20075065

fc1.bias f4 [128]
000000 75 68 84 be 69 cd bb bd 78 6a b6 3e 48 17 89 be
       -0.25860944 -0.09170038 0.35628104 -0.26775575
000010 99 91 b5 3c 36 45 c7 3e d0 67 93 bd 59 6a 94 3e
       0.022164153 0.3891999 -0.07197535 0.28987387
000020 87 0c 90 3e 61 d4 b4 be 3a 24 b3 3e 2d 66 a6 be
       0.28134558 -0.35318282 0.34988576 -0.3249983
000030 90 29 40 3e d4 93 3f 3d eb 56 11 3e c0 09 84 3e
       0.18765855 0.04677184 0.14193313 0.2578869
000040 ba a8 bf bd 8a 66 14 be 71 4e 63 be b3 bd 6b 3e
       -0.09358354 -0.1449224 -0.22197892 0.23021583
000050 7e f2 3c 3e f9 9e 33 3e 69 15 5e 3e 04 be db 3c
       0.18451878 0.17541112 0.21687855 0.026824005
000060 82 a3 86 be c0 a7 95 be e3 d1 0f be e0 8c 3a be
       -0.26296622 -0.29229546 -0.14044909 -0.18217802
000070 f9 61 1b be 0f d0 97 3d c2 f9 bd be bc 45 76 be
       -0.15174092 0.07412731 -0.37104613 -0.24050039
000080 44 ab 8a 3e 33 bc 83 be 7a fd d2 39 65 bb 49 3e
       0.2708379 -0.25729522 0.00040243176 0.19700392
000090 13 2c cf bd 07 87 1a 3e 4d 13 3f 3e 9a de 42 3e
       -0.10115828 0.15090571 0.18659706 0.19030228
0000a0 3a 20 99 3d 03 55 23 3d 32 b9 10 be 72 e3 88 3e
       0.0747685 0.039875995 -0.14133146 0.26736027
0000b0 98 99 94 be 73 8a d1 3e d3 5d 61 3e fa 63 0b 3e
       -0.29023433 0.4092594 0.22008447 0.13612357
0000c0 34 21 af 3e 16 37 8a be 55 fc 1b 3e 72 70 42 be
       0.3420502 -0.26995152 0.15232976 -0.18988207
0000d0 66 f5 7c 3e c8 dc 9a bd 7b a3 a6 3e ad 44 31 be
       0.24702987 -0.07561642 0.325466 -0.17311354
0000e0 a7 31 a2 bd 01 7d be 3e d1 92 b3 bd 8f 02 4b 3c
       -0.07919627 0.37204745 -0.087682374 0.012390747
0000f0 96 32 c3 3d 9d 75 35 3e bf e2 8e 3e 34 18 e4 3d
       0.09531133 0.17720647 0.2790737 0.11137429
000100 25 72 74 bc 07 18 d1 3c 4f 83 c0 3e d6 c2 a5 be
       -0.014919792 0.025524152 0.3760018 -0.3237521
000110 36 7e 7b 3e 48 e4 a5 3d fb 29 a3 be 78 83 14 bd
       0.24559864 0.08100182 -0.31867966 -0.03625819
000120 61 51 9b be aa 8b 75 3e cf 3b 1a be 83 0d 06 bd
       -0.30335525 0.23979059 -0.15061878 -0.03272773
000130 63 23 ab 3e 2a c5 b6 3d a5 32 ac be e6 7d 1d 3d
       0.33425435 0.08924325 -0.3363239 0.038450144
000140 84 c2 aa 3e 13 98 5b 3e 3a d9 49 3d 5b 59 89 be
       0.3335153 0.2144473 0.04927943 -0.26825985
000150 b5 96 7d 3e 38 c4 a9 3e 23 62 b0 3e 77 1c c4 3e
       0.24764521 0.33157516 0.34449872 0.38302967
000160 49 ff cf 3e 5d 0c 45 3d 95 58 cf bd 16 55 5a 3e
       0.40624455 0.048107494 -0.101243176 0.2132152
000170 67 68 cd bd 72 ee 1d bd ce 77 7a 3e 79 60 41 3e
       -0.10029679 -0.038557477 0.24459764 0.18884458
000180 1d 78 31 be 25 03 6a be a9 19 e1 bd d5 a4 8c 3d
       -0.17330976 -0.22852762 -0.109912224 0.06867377
000190 44 00 a3 be 10 9a 9f be aa 1e c2 bc 22 a9 af be
       -0.3183614 -0.31172228 -0.023696262 -0.34308726
0001a0 44 2f 32 3e 94 be eb bc 30 0d db 3c c1 42 f6 3d
       0.17400843 -0.028777398 0.026739687 0.12024451
0001b0 33 79 ab be ff 2d 8e bd e4 7f 14 3e e8 f8 84 3e
       -0.33490905 -0.06942367 0.14501911 0.2597115
0001c0 3d 0f c3 3e 29 5f 91 3e 09 e1 16 3e 25 53 e2 bd
       0.38097563 0.28392914 0.14734282 -0.11051015
0001d0 b4 cc 78 be 13 a0 e0 3c 7b 5e 8b 3d 44 50 4e 3e
       -0.24296838 0.02742008 0.0680513 0.20147806
0001e0 bb cb 06 bd b8 cd f5 bd c0 44 c5 bc 7c 8c a7 3e
       -0.032909136 -0.12002128 -0.024080634 0.3272437
0001f0 61 4c 89 3e de 90 bb 3e 97 19 71 be 85 95 41 be
       0.26816085 0.36633962 -0.23544918 -0.18904693

fc2.weight f4 [128, 128]
000000 86 94 66 3d e1 7a 4a 3e e6 7e ac 3c 97 47 6c 3d
       0.056293987 0.19773437 0.021056604 0.05768546
000010 0d 58 ff 3d 7c 33 a5 3c 3d b2 f0 bc 4e e6 06 3e
       0.12467966 0.020166151 -0.029381866 0.13173792
000020 e8 c8 9e 3d ee 88 39 3d 3c d1 c9 3d dc 2c d7 bd
       0.077531636 0.045296602 0.098543614 -0.10506603
000030 c9 25 9e 3d 49 6c a2 3d dd fe 0e 3e 0e 11 bc 3d
       0.07722051 0.0793081 0.1396441 0.091829404
000040 49 68 fb 3d bb 76 ac bb ce e5 11 3d 58 ee 30 3c
       0.1227575 -0.005263177 0.03561955 0.010799013
000050 2a cf 82 bc fa 6b b0 3d 04 9d 18 3d 32 34 5c 3d
       -0.015967924 0.08614345 0.037259117 0.053760715
000060 2c ed f6 bc d9 4a 53 bd a0 fc cb bb 2d 5b bb 3d
       -0.03014239 -0.051585052 -0.0062251836 0.0914825
000070 8a 5c c8 3d 84 5f 04 3c ce 02 0d bd 8a 77 b7 3d
       0.097832754 0.008079413 -0.034426503 0.08958347
000080 62 e6 fc 3d 24 c5 9d 3c 9c 66 46 3d 31 8e 3c bd
       0.123486295 0.019259043 0.0484377 -0.04603404
000090 e6 3e 20 3d 3f cf 30 3d 61 b8 c6 3d 32 e3 65 3d
       0.039122485 0.043166395 0.09703136 0.056124873
0000a0 8d 79 bd 3d 11 cf 73 3e 40 c6 59 3c a2 3a c9 3d
       0.092516996 0.23809458 0.013291895 0.098256364
0000b0 4f 22 1a bd d8 3b 2a 3d c8 1d 26 3d 14 02 a3 3d
       -0.037630375 0.041560978 0.040555745 0.07959381
0000c0 08 c7 da 3c 75 9b a7 3d ef 59 98 3d 65 67 96 3d
       0.026706234 0.08183948 0.074390285 0.0734394
0000d0 2c 60 7c 3d 12 f3 e7 bc 62 e8 31 3d 50 7d 3b 3c
       0.061615154 -0.028314147 0.04343451 0.011443451
0000e0 48 dc 9b 3d 20 c8 0c 3e 52 51 9e 3d 5e 4d ce 3d
       0.07610375 0.13748217 0.07730354 0.1007335
0000f0 81 60 f1 bc b2 4a 11 3d 49 53 55 3e 45 ac 83 3d
       -0.029464962 0.035471626 0.20832552 0.06429342
000100 ec cc 83 3d bc 39 e3 3b e1 6d 4a 3d 23 d7 13 3d
       0.0643557 0.0069343727 0.049421195 0.036093842
000110 b8 da c8 3c 77 e1 67 3d 96 13 d5 bc 5d dd 6b bd
       0.024518356 0.056611504 -0.026010316 -0.057584155
000120 88 bc 24 bd 15 66 ac 3c ef b9 26 3e d5 2b a8 3d
       -0.04021886 0.02104477 0.16281866 0.08211485
000130 d4 a5 07 3d f6 dc a5 3d 20 e5 50 bc 79 4b 78 bc
       0.03311713 0.080987856 -0.01274994 -0.015154713
000140 76 33 70 3d 9e bc d2 bb cf 8b 0b 3e 3d 26 a2 3c
       0.058642827 -0.0064311763 0.13627551 0.019793624
000150 7e c5 c8 3d 02 ed 07 3d 6a e7 94 3c 84 2b b4 bc
       0.09803294 0.033185013 0.018176753 -0.021993406
000160 78 c2 9c bc bc 8c cb 3d c4 4e 63 3d 7d 95 a4 bd
       -0.019135699 0.09938952 0.05549504 -0.08036325
000170 f6 bb 40 bc a7 36 0c 3d 93 a0 4f 3d 30 bf b4 3d
       -0.011763563 0.034231808 0.050690245 0.088255286
000180 7a dd a4 3c 38 07 a1 bc 20 de 43 bb d4 52 36 bc
       0.02012514 -0.019656762 -0.0029887035 -0.011128146
000190 aa 8f 79 3d 83 95 34 bd d0 08 c9 3c 93 cc a3 bd
       0.060928024 -0.044087898 0.024540335 -0.07998004
0001a0 3f 72 db 3c 60 70 c0 3c 12 74 03 3d 2a a7 f9 3d
       0.026787875 0.023491085 0.032093115 0.12190087
0001b0 3e 02 37 bc 50 08 6f 3d 0e 7e 1f bd 3f ad d1 3c
       -0.011169968 0.058357537 -0.038938574 0.025595305
0001c0 e8 4c b3 3d 62 c9 a2 3c b0 83 27 3c 5f cd fc bc
       0.08754903 0.019871417 0.010224268 -0.030859647
0001d0 bc bb 06 3e ca 36 67 3d 8e 8b ee 3d 8f d3 6b bc
       0.13157552 0.056448735 0.11647712 -0.014393701
0001e0 92 e1 99 3d 20 62 8f 3b f6 f1 63 3d 57 6d 88 bd
       0.07513727 0.004375711 0.055650674 -0.0666148
0001f0 91 76 04 3e f5 fe b9 3d b1 b1 c6 bd 62 90 27 3d
       0.12935854 0.09081832 -0.09701861 0.04090918
000200 70 4a de bb 47 0c 9f 3d 01 a0 a7 bc 60 39 d1 3b
       -0.006783776 0.077660136 -0.020462038 0.0063850135
000210 00 7f 7a 3b f3 4a a1 3d 7f ee 38 bd ac 6e 05 3d
       0.003822267 0.078756236 -0.045149323 0.032576248
000220 59 1b c8 bc 58 18 8a bd 1a 8a 57 3d 47 8f 90 bd
       -0.024427103 -0.067429245 0.05262194 -0.07058578
000230 b5 c3 68 bd 9e 87 8b bd 81 ff a6 3d d0 36 5f 3d
       -0.056827266 -0.06812976 0.08154202 0.054495633
000240 49 35 cb bc 5b e5 61 bd 1e 02 20 3d ff 3d 6d 3d
       -0.024805682 -0.05515037 0.03906452 0.057920452
000250 08 a9 4b 3b 47 f8 a2 bd 46 46 b2 bb 21 a1 84 bc
       0.0031076092 -0.079575114 -0.005440506 -0.016190113
000260 59 93 37 3d bd e5 85 3d b2 06 16 3d b3 5d c5 bc
       0.044818256 0.0653796 0.03662748 -0.02409253
000270 9d c3 a2 3c e5 d0 13 bb c3 63 2c bd d0 79 a5 3d
       0.019868666 -0.002255493 -0.042087328 0.080798745
000280 32 aa 19 3d 29 d1 14 3d 60 18 59 3c fa 26 85 bd
       0.037515827 0.036332283 0.01325044 -0.06501575
000290 61 8f b2 bd e8 b4 5f 3d 04 a3 7b bd d8 41 d4 3b
       -0.087187536 0.054615885 -0.06143476 0.0064775757
0002a0 4e 96 8e 3d 9a 77 a3 bd ba c6 df 3c dd cf 13 3d
       0.06962262 -0.079817966 0.02731644 0.036086906
0002b0 72 19 63 3d ff ab 8b bd 01 a8 b9 bd 24 14 36 bd
       0.05544419 -0.06819915 -0.09065247 -0.0444528
0002c0 1c 32 2e bd 5a f6 a5 bd 84 65 01 bd e5 80 06 bd
       -0.042528257 -0.081036285 -0.031590953 -0.032837767
0002d0 0e 9b 88 bc ba 1d 60 3d 28 79 7c bd 92 d4 16 bd
       -0.016675498 0.05471585 -0.06163898 -0.036823817
0002e0 a1 14 a3 bd 26 57 b4 3b 14 95 bf bd 7c 8e ad bd
       -0.07962919 0.005503553 -0.09354606 -0.08474442
0002f0 fe ed a1 3b 1b d5 b0 bd f8 a5 d3 3c 74 c8 4c bd
       0.004941701 -0.08634397 0.025835976 -0.049995854
000300 ef 21 ed 3c 53 7f 54 3d 16 cc 11 3d 4b fc f0 3c
       0.028946845 0.05187924 0.035595022 0.029417178
000310 7d e6 83 bd f5 38 71 bd c5 9b b1 3d 40 69 f8 3a
       -0.064404465 -0.05889221 0.08672289 0.0018952265
000320 ea 97 73 3d d9 1e 9d bd bc 85 ef 3c 0f 39 b6 bc
       0.05947105 -0.07671899 0.029238574 -0.022244005
000330 05 7c 14 3d 06 bc 8a bd 3c 64 9a 3c d9 af 84 bd
       0.036251087 -0.06774144 0.018846624 -0.06478853
000340 b2 6c a4 3c e3 2a a8 bd 37 b3 95 3c 61 c5 a7 3d
       0.020071361 -0.08211305 0.018273933 0.08191944
000350 ae c0 22 3d aa c6 43 bd bd 57 f9 bc d1 6b 91 bd
       0.039734535 -0.047796883 -0.030437345 -0.071006425
000360 07 2f 60 3d 92 d9 8e bc dc 4e ca 3c ac 12 a3 bd
       0.05473235 -0.01743773 0.024695806 -0.07962546
000370 1d b3 16 3d 49 b8 46 3c 01 2b 15 bd 67 b3 48 3d
       0.03679191 0.012128898 -0.036417965 0.048999216
000380 e2 47 6a 3d e2 08 31 bd 44 d2 85 bb 20 41 95 bd
       0.05719746 -0.043221362 -0.0040839035 -0.07287812
000390 78 22 c9 3c 98 17 9e bd f8 84 1a 3c 5e b2 24 3d
       0.024552569 -0.07719344 0.009431116 0.040209167
0003a0 c3 4d 43 3d 0a 49 5c bc ec 50 04 3d f6 da 1c 3d
       0.04768158 -0.013445148 0.032303736 0.038294755
0003b0 e0 a8 88 3d f6 76 a9 3d 1d 92 a6 3d 74 48 62 bd
       0.06672835 0.08274643 0.08133338 -0.055244878
0003c0 93 05 6e 3b 4a be bb bd dc 2d 12 3d 62 71 3c 3d
       0.003631924 -0.09167154 0.035688266 0.046006568
0003d0 67 f4 1f 3d 91 ec 62 3c 96 2f a3 bd c3 a9 05 bd
       0.03905144 0.013850347 -0.07968061 -0.0326326
0003e0 8b 78 cb 3c 08 cd a6 3d da bb 08 bd 18 03 37 bc
       0.024837753 0.08144575 -0.033382274 -0.011170171
0003f0 c7 80 20 3d be d3 e4 bc 28 9b 76 3c 40 e2 b1 bc
       0.03918531 -0.027932998 0.015051641 -0.02171433

fc2.bias f4 [128]
000000 5e f8 d0 3d 99 ee 80 bc a0 6b 60 bc 13 a9 14 3d
       0.10203622 -0.015738772 -0.013697535 0.036294054
000010 8b 20 0e 3c 82 65 46 bd d2 34 f9 bc 5d 9e 1b 3e
       0.008674751 -0.04843665 -0.030420695 0.1519713
000020 78 3f 3a bd 53 e0 40 3d c1 16 bd bd 72 3d fc 3c
       -0.045470685 0.047088932 -0.092328556 0.030791018
000030 37 85 ae 3b 4b 3d a4 bd e2 7d f3 bc cd f0 df 3c
       0.005325939 -0.08019503 -0.029723112 0.027336502
000040 60 40 0a 3d 02 0f 02 bd 58 64 73 bc f1 3b 42 3d
       0.0337528 -0.031752594 -0.014855467 0.047420446
000050 7a 1b b9 bd d9 14 03 3d 74 a9 0c 3d 78 31 05 bd
       -0.09038444 0.032002304 0.03434129 -0.03251788
000060 1e 7f 57 bc d7 e4 a9 bc 7e 9c 6c 3d 50 54 81 bb
       -0.013152866 -0.020739002 0.05776643 -0.0039468184
000070 3a c0 b6 bd 7b 80 d1 bc d1 8a 19 3c 20 30 9a bb
       -0.08923383 -0.02557396 0.009371475 -0.004705444
000080 70 4c 9f 3d 64 69 85 bd df 73 02 3d df 22 a8 3d
       0.07778251 -0.06514242 0.031848785 0.08209776
000090 e9 bd c3 3c da 90 e3 3d 31 dd 3b bd 74 c1 9c bc
       0.023894267 0.111116126 -0.04586524 -0.019135214
0000a0 a2 95 82 bc 56 e6 7d 3c 7e 0b 2e bd 80 90 d1 3d
       -0.015940491 0.015496811 -0.04249143 0.10232639
0000b0 ae b8 59 ba 94 64 2c bd 11 75 6d bb 3b dc 27 bd
       -0.00083054125 -0.042088106 -0.0036233107 -0.040981513
0000c0 f0 35 a9 3c 96 30 2d bd 98 68 c2 3d 0e a7 88 3d
       0.020655602 -0.042282663 0.09492606 0.06672488
0000d0 58 fd 59 bc 8f b1 01 3d f1 a4 3e 3d 41 2e b7 3b
       -0.013305031 0.031663474 0.04654402 0.0055902307
0000e0 34 4a ef 3c 04 4c af bd 70 35 51 bd 67 44 ea bc
       0.029210187 -0.08559421 -0.051076353 -0.02859707
0000f0 da 9f 5c 3d 04 44 a3 bc 62 4e 62 bd 6f 73 9b bd
       0.053863384 -0.019929893 -0.055250533 -0.075903766
000100 a7 f7 13 3d 87 3b a8 3d 07 1b 1c bd 9d ec ea 3b
       0.03612485 0.08214479 -0.038111713 0.00716932
000110 d7 00 a9 3d 77 fe 18 bd ad ea f6 3d 84 ea b1 3c
       0.08252113 -0.03735205 0.120564796 0.021718271
000120 12 34 5d 3d 88 13 8c 3c 06 9b 50 3d 98 7c 9d bd
       0.054004736 0.017099157 0.050929092 -0.0768978
000130 60 d8 10 bc 19 9f 33 bd 26 f3 d6 bc 3b 0e 67 3d
       -0.00884065 -0.0438529 -0.02623899 0.056410056
000140 93 32 df bc 08 33 f3 b9 04 02 8f 3d 65 9c 50 bc
       -0.027245795 -0.00046386593 0.06982806 -0.0127326
000150 81 fb fa 3c d7 ea a2 bd 50 78 85 bd c0 c7 80 ba
       0.030637505 -0.079549484 -0.065170884 -0.0009825155
000160 57 1b 3a bd 9e f0 5d 3d 00 00 89 bd 55 a8 b5 3d
       -0.04543623 0.05418455 -0.06689453 0.088699974
000170 04 ee 95 bc e4 28 81 3d 79 a9 03 bd 00 5e 82 bd
       -0.018301971 0.063066274 -0.032144044 -0.06365585
000180 d4 df 91 bc cc fc 1c ba 8c 22 c2 3d e6 be 2c bd
       -0.017806925 -0.00059885974 0.094792455 -0.042174242
000190 fa cd 54 bc a9 2d b6 3d 13 1f 86 bd 93 0c 99 ba
       -0.012988562 0.08895428 -0.06548896 -0.0011676721
0001a0 1b f6 b3 bd 5b cc 3d 3c e4 e8 d3 3c 75 39 2a bd
       -0.08787175 0.011584367 0.025867887 -0.0415587
0001b0 10 68 b1 bd 46 fa ea 3d 53 8e a5 3d f5 95 79 3d
       -0.086624265 0.11473517 0.08083787 0.060934026
0001c0 d9 de 25 3c 0f 9d 0e 3d fe 09 2c bd c8 ae d2 3d
       0.010123932 0.03481775 -0.042001717 0.10287243
0001d0 c8 2e 92 bc 32 c9 f3 3d f7 5b d7 bc a1 08 cd bd
       -0.017844573 0.11903609 -0.02628897 -0.100114115
0001e0 bd 7b a1 3d 10 e5 83 3d 5a 33 0d 3c 4d ac ae bd
       0.07884929 0.064401746 0.0086182 -0.085289575
0001f0 56 7d 5d 3d a1 24 b2 3a 4e 17 b1 bd 80 fe 27 bc
       0.054074608 0.0013591239 -0.08647023 -0.010253549

fc3.weight f4 [1, 128]
000000 1f fc c7 3d 59 07 33 bd b0 f1 a2 bd 5d 54 61 bd
       0.09764885 -0.04370818 -0.079562545 -0.055012096
000010 ce 78 48 bd f3 2b aa 3d 59 4f da 3d e3 37 13 3e
       -0.048943333 0.08309164 0.106596656 0.14376788
000020 75 22 38 bd c8 fa 8d bd 1e 4c 8b bd 71 14 ac 3d
       -0.044954736 -0.06932598 -0.068016276 0.084023364
000030 7a 2e b1 bd 61 1d 2d 3d 08 21 76 3d b9 8c 85 bd
       -0.08651443 0.042264346 0.060090095 -0.06520981
000040 8e 25 90 bd 13 3d a1 3d 2c 47 b0 bc de 7f c4 3d
       -0.07038413 0.07872977 -0.021518312 0.09594701
000050 92 5d 91 3c 56 12 6f 3d d2 d1 36 bd 68 bc da 3a
       0.017744813 0.058367096 -0.044633694 0.001668823
000060 a7 2a 65 bc 64 6f a3 3d ec 38 5d bc e8 e7 9d bd
       -0.01398722 0.079802305 -0.013502341 -0.07710248
000070 d9 b6 6a 3d ff c1 a1 b9 bb a7 c1 3d 4c 2a 3b 3e
       0.057303283 -0.0003085285 0.0945582 0.18277854
000080 4f 10 97 3d b8 80 71 bd 1d f7 2d 3d 54 3c bd 3d
       0.073761575 -0.058960646 0.042471994 0.09240022
000090 a5 b8 7b bc 10 78 4f 3d 11 27 d4 3d 58 e4 da bc
       -0.015363847 0.05065161 0.10359014 -0.02672021
0000a0 0f 83 a4 3d 27 d3 13 bd 76 4c 45 3d 4e cd 9d 3d
       0.0803281 -0.036090042 0.048168622 0.077051744
0000b0 76 df 82 bd 11 a1 84 3d 15 0d c2 3d 83 42 e9 bb
       -0.06390278 0.064760335 0.094751514 -0.0071185245
0000c0 e1 a0 5d bd f1 52 ac 3c d0 8c 9b 3d 8d 2c cb bc
       -0.054108504 0.021035643 0.07595217 -0.024801517
0000d0 00 74 33 3b 31 43 9c 3d 07 be bc 3d 84 e3 5d 3d
       0.0027382374 0.07630003 0.09215932 0.054172054
0000e0 f8 a1 03 bd 12 72 62 bc 75 35 a2 bd 49 bd 75 bc
       -0.032136887 -0.013821142 -0.07920352 -0.014998742
0000f0 43 b1 e8 3d 55 ed 8d bd 2e 4d 31 bd 92 e3 38 3d
       0.11361935 -0.06930033 -0.043286495 0.045138903
000100 5a 2e 90 3a 27 42 b0 bc e3 3e 84 bd 4d 43 25 bd
       0.0011000142 -0.021515919 -0.06457307 -0.040347386
000110 89 bd 5b 3d ce 1a c0 3d 0b c4 79 3d a1 d4 84 3d
       0.05364755 0.093801126 0.060977977 0.06485868
000120 b2 25 6c bd 4a 91 62 3d 33 d0 6a bc 36 79 69 3d
       -0.057653137 0.05531434 -0.014331865 0.05700036
000130 90 6f ea bc b5 ed a7 3d 3b f1 86 bd 9c 17 9a bd
       -0.02861765 0.08199636 -0.0658898 -0.075240344
000140 f6 61 64 bd 0b d2 d4 3d 91 cf 9b bc 93 4b fa 3c
       -0.055757485 0.10391625 -0.019019874 0.030553615
000150 e3 64 dc ba df da cf bc df 2c 1b bd 17 93 81 bd
       -0.0016814735 -0.02537292 -0.03788459 -0.06326883
000160 07 52 f5 3d 1e e3 ea bc a9 63 80 bc b9 2d a5 3d
       0.11978536 -0.028672751 -0.015672522 0.080653615
000170 85 da 94 3d 06 77 9f 3d 5a 43 7c 3d ca 88 81 bd
       0.07268242 0.07786374 0.06158767 -0.063249186
000180 46 b4 24 3d d6 6b e7 3d e7 ea 55 3d 54 47 3c bd
       0.040210985 0.11299865 0.052225973 -0.04596646
000190 66 2b 45 3d 28 09 e5 3c 3d 00 9a bb 76 c5 5c 3d
       0.04813709 0.027958468 -0.0046997354 0.05389925
0001a0 9e da 81 bd 03 1f e7 3d d0 d7 50 3a 46 43 0a 3e
       -0.06340526 0.11285212 0.0007966729 0.13502225
0001b0 b3 2a f7 bc a8 f2 dc 3d 2e 85 7b 3d ce 1c 9e bd
       -0.030171728 0.107884705 0.061406307 -0.07720338
0001c0 78 01 a9 bd 4f 3a d3 3d 3c 4a ac bc cf 75 a6 3d
       -0.08252233 0.10313856 -0.021031491 0.08127939
0001d0 02 2e 7e 3d 48 82 a0 3d 34 bc 9e 3d 65 a6 39 bd
       0.062055595 0.07837349 0.07750741 -0.0453247
0001e0 d0 df 0a 3c d5 a7 59 3d 0f df 64 3d f1 06 92 bd
       0.008476213 0.053138573 0.055876788 -0.0713023
0001f0 7c 47 2d 3e 54 c6 62 bd 86 81 23 bd 98 fa b3 3c
       0.169218 -0.05536492 -0.039918445 0.021970078
