cartpole-implementation/best_cartpole_model.pth (torch, 73317 bytes, 6 tensors)

fc1.weight f4 [128, 5]
000000 4a bb 6d bd 11 ed b3 bd a4 f9 d9 be 3d 0f 07 3f
       -0.05803994 -0.08785451 -0.42573273 0.52757627
000010 fa da 95 be d9 0b de 3e ea 13 d8 be a1 c5 8a bf
       -0.29268628 0.43368414 -0.42202693 -1.0841562
000020 2c 67 c1 be 6b af f9 be 48 5c 99 3e 9c d1 9c be
       -0.37774026 -0.48766646 0.29953218 -0.3062867
000030 74 aa a5 3e 87 57 b7 be d4 a8 8f bd 56 02 84 3d
       0.32356608 -0.35808966 -0.07014623 0.06445758
000040 9e db f5 bd 84 3b 39 3f 7b 5a be 3e 50 4d ba 3a
       -0.12004779 0.7235644 0.37178406 0.0014213715
000050 13 bd cf 3a 11 ad eb 3d 5b d8 58 be 7f 16 2f 3e
       0.0015849195 0.11507619 -0.21176283 0.17098425
000060 98 76 b3 be 37 ce 2c 3f 3a 92 87 3e 89 80 c8 3f
       -0.35051417 0.6750216 0.2647875 1.5664226
000070 1a be 9f 3e fb 28 0c 3f bf 4f 42 3e 7e 09 e3 3d
       0.31199723 0.5475003 0.18975733 0.11085795
000080 2b d4 a7 3f 84 4d 17 3e 62 0f 44 3f 43 be b6 3e
       1.3111624 0.14775664 0.7658597 0.35692033
000090 04 0c 9c 3d 0a 02 25 bd 0b 44 1b 3f ca cb 3a be
       0.07619479 -0.040285148 0.606507 -0.18241802
0000a0 03 af 6f be bf 2e 13 3e 6d ea 44 3f fb 80 2e 3e
       -0.23406605 0.14373301 0.76920205 0.1704139
0000b0 42 b1 92 3e 2e 36 40 be ea 60 bb 3e 0a b2 a4 3e
       0.28650862 -0.18770668 0.36597377 0.32167083
0000c0 05 0c 01 bd bd 4a da 3c c8 d1 dd be 10 a9 d2 3e
       -0.031505603 0.026646966 -0.43324113 0.4114461
0000d0 cc c4 76 3e cc e7 44 3e 56 6e 6b 3e 31 d0 1d be
       0.2409851 0.19229048 0.22991309 -0.1541145
0000e0 ad 9d dd 3c 0e 5b cd 3e d6 60 f1 3e d9 d5 c7 be
       0.027052725 0.40108532 0.47144192 -0.3903034
0000f0 47 2b ac bc 68 96 57 bd f0 bd 86 be 4f ef be 3e
       -0.02101673 -0.052633673 -0.26316786 0.37291953
000100 27 ad b3 3e a3 62 c8 3e 5c 10 f8 3e 35 5e c1 bf
       0.35093042 0.39137754 0.4844998 -1.5106875
000110 c7 eb 15 bf 76 ad d9 be 8e 8f 98 3e b3 d2 db be
       -0.5856289 -0.42515153 0.29797024 -0.42934188
000120 db 4f fd bd 67 18 45 3f d2 91 b5 3e f1 d0 55 3f
       -0.12368747 0.7699036 0.35462815 0.83521944
000130 94 0c 59 be df ec fc bf 14 58 1c 3f 73 10 69 bf
       -0.21196204 -1.9759787 0.61071897 -0.91040725
000140 23 39 a7 3f e7 fd 6c 3f be b8 c0 3e 8c f8 9e 3d
       1.3064312 0.92574924 0.37640947 0.0776225
000150 59 ea c0 3d e1 7e 11 3e 5e f8 dc 3d 4b 1f b4 3f
       0.09419698 0.14208557 0.1078956 1.407205
000160 54 63 de 3e b4 43 66 3f 43 0f ed 3e dc 74 91 3e
       0.43435156 0.89947057 0.46300706 0.2840947
000170 89 47 ec bd ae 92 92 bd 1b b2 0b 3d 74 36 cb be
       -0.11537082 -0.07156883 0.0341054 -0.39689982
000180 2c 51 dd 3e 25 4c a7 be 3f ad c8 3e 29 7d be 3e
       0.43225992 -0.3267528 0.39194676 0.37204865
000190 c1 dc dd 3e cf a0 49 3e 90 ad b3 3f 23 46 c9 be
       0.43332484 0.1969025 1.4037342 -0.39311323
0001a0 77 72 8d 3f fb 1e 06 3f 88 8f 09 3f 3f 13 0f 40
       1.1050557 0.5239102 0.53734636 2.2355497
0001b0 27 a6 9d be 42 4b 3c 3f 21 65 ff 3c dc c2 5d bd
       -0.30790827 0.73552334 0.031176152 -0.05414091
0001c0 e3 87 f5 3f 7c e4 e3 be 2d 9d 76 3f 2a 5e d1 3e
       1.9182094 -0.44510257 0.9633358 0.40892154
0001d0 12 b2 94 3e 41 28 a6 3d 76 b4 33 3e a0 e4 0f 3e
       0.29042107 0.081131466 0.17549309 0.14052057
0001e0 f1 e6 7a 3e fe 25 ac be be 27 b7 3e b5 2d e8 3e
       0.2450216 -0.33622736 0.35772508 0.45347372
0001f0 89 26 aa 3d 55 53 f7 bd 34 d5 a5 be ff 4e 99 bd
       0.08308131 -0.12076441 -0.32389224 -0.074857704
000200 21 10 f2 3c 29 8f 89 3d 4b 2f 07 3f 91 4c e9 3e
       0.029548706 0.06716759 0.5280654 0.45566228
000210 6d 77 fa bf c2 e6 4a be fc f9 2c bf bb 12 09 3e
       -1.9567696 -0.1981459 -0.67568946 0.13386051
000220 23 a6 f2 3e db f8 9f be 22 bf 94 3e ce 26 85 bd
       0.47392377 -0.3124455 0.29052073 -0.06501542
000230 7a b2 78 3e 78 ad 5d 3c 3d 68 52 3d 42 fb fe 3e
       0.24286833 0.013530128 0.05136894 0.4980107
000240 5f 35 26 bd cb f5 ac be c1 8e 10 3d 08 9f 07 c0
       -0.040578242 -0.33781275 0.03529239 -2.1190815
000250 57 20 9f be 45 3d 80 bf 23 a2 93 be ac df 18 be
       -0.3107936 -1.0018698 -0.28834638 -0.14929074
000260 5d 75 87 3f 23 39 b0 3e 2f 5f a5 be 3e 48 ab bf
       1.0582691 0.34418592 -0.32299182 -1.3381422
000270 72 3c 98 be 84 52 d2 bf f1 c5 02 bf 74 6c 44 bf
       -0.29733616 -1.6431432 -0.51083285 -0.76727986
000280 b0 03 65 3d 58 c5 aa 3e bc 35 88 3e bc f2 c1 be
       0.05591172 0.33353686 0.26603496 -0.37880504
000290 6e d9 ce 3e 18 85 6f 3e db de d3 be 50 06 40 3e
       0.4040026 0.23390615 -0.41380963 0.18752408
0002a0 22 5a 22 3f c0 71 cd be 68 89 a2 bd 3a de 13 3d
       0.6341878 -0.40125847 -0.079363644 0.036100604
0002b0 e6 0c 5f 3f ec 5d 06 3f df e1 54 3e cb c9 30 3c
       0.87129056 0.52487063 0.20789288 0.010790299
0002c0 a6 73 9a 3e ac 19 19 be ff 17 b0 3d 95 9e 9f be
       0.30166358 -0.149512 0.08598327 -0.31175676
0002d0 cf 0a 0c be 97 ed b4 be d9 f3 c7 3e 90 83 11 3f
       -0.13675998 -0.35337517 0.39053228 0.56841373
0002e0 f4 b4 a2 bd 80 86 b9 bb b4 e5 1e 3e e4 07 b7 be
       -0.0794467 -0.0056617856 0.15517312 -0.35748208
0002f0 68 fe 09 be ea f7 cb 3e e7 84 d4 3e 44 c2 ea 3d
       -0.13475955 0.3983758 0.41507646 0.114628345
000300 b1 76 b4 be a5 8c 07 3f af 35 ca 3d 83 b2 08 3e
       -0.35246804 0.5294898 0.098735206 0.13349347
000310 aa 51 25 be ac 85 b5 bd 04 91 e2 3d 25 32 eb be
       -0.16144434 -0.088633865 0.11062816 -0.45936695
000320 6f 81 02 be 29 a1 3a be be da 9d be 3d 31 3e 3e
       -0.12744687 -0.1822554 -0.3083095 0.1857347
000330 10 4a 4b be 1c 89 f0 3e e6 0a d0 3e f4 ab 4b 3f
       -0.19852471 0.46979606 0.40633315 0.79559255
000340 ae c3 93 3d 32 73 f2 3b ec a6 41 3f 5c e6 44 3f
       0.07215057 0.0073989863 0.7564533 0.76914
000350 c0 12 2d bf 6e 15 34 bf f1 5a 82 be 03 32 f8 be
       -0.67606735 -0.703452 -0.25460008 -0.48475656
000360 94 44 ab 3d af 13 1f 3f 5e f9 1e 3f 6c 43 00 3e
       0.083626896 0.6213941 0.62099254 0.1252572
000370 f7 75 90 3e 04 e6 dd 3d 26 34 7c be dc 03 87 3d
       0.28215 0.108348876 -0.24629268 0.06592533
000380 f6 80 aa be 61 31 b0 3d e2 91 95 bd b6 5d a0 bd
       -0.33301514 0.08603168 -0.073032156 -0.07830374
000390 13 07 16 3f 4b 64 59 3d 3e b2 bb 3e d7 87 8a be
       0.58604544 0.053074162 0.36659425 -0.27056763
0003a0 62 bd bf 3e 3b 93 0c 3f 2c 9d cd 3e 49 1b d1 be
       0.37449175 0.54912156 0.40158975 -0.4084113
0003b0 c9 f4 12 3f d5 31 0f c0 0b bf 20 bf c3 8f 51 bf
       0.5740476 -2.2374165 -0.6279151 -0.8185999
0003c0 b4 07 84 3f ce 78 79 3f d7 f4 a1 be 28 de 18 be
       1.0314851 0.9744996 -0.3163211 -0.14928496
0003d0 d2 dd e7 bd f2 22 c0 3e 7b 21 68 be da f9 a1 bf
       -0.11321606 0.3752666 -0.22669022 -1.2654374
0003e0 fe e6 3d 3e ff 05 23 bd 03 d1 6a b9 2b 80 44 3e
       0.18545148 -0.03980064 -0.00022393842 0.19189517
0003f0 27 d2 c2 3e fb f5 ee 3e 67 90 87 be 6e 17 d9 3f
       0.3805096 0.46672043 -0.26477358 1.6960275

fc1.bias f4 [128]
000000 b1 3a 16 3f d4 cf 24 be 48 c1 46 3d d6 f9 0b 3f
       0.58683306 -0.16094905 0.04852417 0.54678094
000010 80 ce f1 3e f4 f5 c2 bc 37 06 ef 3e 4d 01 d1 3e
       0.4722786 -0.02379892 0.4668443 0.40821305
000020 0c 89 11 3f 3b 2e c7 be eb d4 0f 3f 84 c3 1c 3f
       0.5684974 -0.3890246 0.5618426 0.61235833
000030 fa 3d 9d 3e ac 55 4a be e1 17 7c 3e e9 2f 79 3d
       0.30711347 -0.19759244 0.24618484 0.060836706
000040 64 b2 1c bf 37 c8 6d 3e ec b8 11 3f 8b 48 d4 3e
       -0.612097 0.23220907 0.56922793 0.41461596
000050 b3 5c 99 be 27 8e 75 bd c1 dd e2 be 20 aa a8 3e
       -0.29953536 -0.05995002 -0.4430981 0.32942295
000060 80 6e b9 3e 3e ad 1e 3f 80 9e b4 be d7 3b f4 3e
       0.36217117 0.61983097 -0.35277176 0.47701904
000070 4c b4 1f 3f 38 00 24 bf 11 01 4c 3c 5e 26 59 be
       0.62384486 -0.64062834 0.012451426 -0.21206042
000080 95 1e 97 be ec 3e 95 3e 1a 07 2a 3f c0 2f 2c 3f
       -0.2951552 0.29149568 0.66417086 0.6726036
000090 c4 c3 3b 3e 43 55 6c be 1d 30 3e 3e 86 30 f8 3e
       0.18336397 -0.230794 0.18573041 0.4847452
0000a0 9d 63 04 3f 85 12 2b 3f ff a9 0c be c1 b2 9a 3e
       0.517145 0.66825134 -0.13736723 0.30214503
0000b0 1b 04 1c 3f 9e 74 27 3f c7 49 ea 3e 4b b0 8d bd
       0.60943764 0.6541232 0.45759413 -0.06918391
0000c0 83 4f 27 bf f0 ca ef 3d fb b2 14 3f e2 d5 45 3e
       -0.653557 0.11708629 0.580856 0.19319871
0000d0 d7 20 4e be ab 8f ba 3e c7 22 a0 bd 27 c3 16 3f
       -0.20129715 0.36437735 -0.07819133 0.5889153
0000e0 4e 23 11 3d e8 f7 8e 3e d7 99 ce 3d 37 dc 1f 3f
       0.03543406 0.27923512 0.10087936 0.62445396
0000f0 58 bd 2d 3f 40 1a 1d be 54 06 92 be fe f1 1d 3f
       0.6786704 -0.15342045 -0.28520453 0.61697376
000100 4e 06 9b bc d8 6d d9 be b8 af 00 3f 2f ab 0b 3f
       -0.018923905 -0.42466617 0.50268126 0.5455808
000110 62 57 2d bf 70 c6 d0 3e fb 9b 81 bd 1b c0 29 3f
       -0.6771146 0.40776396 -0.06328579 0.66308755
000120 f8 81 1d 3e 6f ac 1b 3f a0 77 3c 3e 53 9e ff bd
       0.1538161 0.6080999 0.18405008 -0.1248137
000130 8a ac da 3e 97 3d df 3e 84 9b ca be 9f a1 b5 be
       0.42709762 0.43601677 -0.39571774 -0.3547487
000140 fc 8b b1 be 8a a4 38 3e 3f b7 c7 3e f6 41 31 3f
       -0.34677112 0.18031517 0.39006993 0.69241273
000150 29 8b a6 3e e4 c8 2c 3f d0 26 06 3f e4 99 0a 3f
       0.32528046 0.67494035 0.52402973 0.5414107
000160 f6 94 c6 3e 7d 17 b7 3e 7a 93 bc 3e b3 8d d7 3e
       0.38785523 0.35760108 0.36831266 0.42100295
000170 e8 e8 9b 3e 76 b6 2e be ee 2b 08 3f 96 d6 b4 be
       0.3045113 -0.17061791 0.5319203 -0.35319966
000180 02 73 2d 3f 2b b6 17 3f d8 c9 15 bf 21 2a 06 3f
       0.67753613 0.5926234 -0.58511114 0.52408034
000190 ee e2 7d be 42 65 b9 3e 7d 3c de be b9 4f a5 3e
       -0.24793598 0.36210066 -0.43405524 0.32287386
0001a0 3b 2c 8d be a6 05 91 be 79 0f d4 3e bc 40 e4 3e
       -0.27572808 -0.28324622 0.41418055 0.44580638
0001b0 70 2a 05 be d2 98 b0 3e d8 f3 3e 3f 6a 06 88 3e
       -0.1300447 0.34491593 0.74590826 0.26567394
0001c0 2f 26 cb 3e 7a 54 02 3f 9c e0 42 3e 28 08 24 3f
       0.3967757 0.5091015 0.19030994 0.64074945
0001d0 6c b1 9a 3d d6 67 91 3e a8 b3 13 3f 98 e1 7f bc
       0.07553372 0.28399533 0.5769601 -0.015617751
0001e0 b1 db f6 3e c3 81 c5 3e f7 0a 94 be b4 8e df be
       0.48214486 0.38575563 -0.28914616 -0.4366356
0001f0 78 e2 7e 3e 6c fe d9 be fe ff 62 bd 80 ac c8 be
       0.24891078 -0.4257692 -0.055419914 -0.39194107

fc2.weight f4 [128, 128]
000000 f2 82 85 3d e0 06 ff 3b 4c df 9c bd 47 e5 1e 3c
       0.065191165 0.007782802 -0.07659778 0.009698219
000010 74 d8 9d 3c 80 24 27 bc 8d 0b 35 3d 8d 61 2d 3d
       0.019268252 -0.010201573 0.04420047 0.04232936
000020 1e 70 87 bd 18 5a 98 bd d1 49 31 bc 18 1a 0d bd
       -0.066131815 -0.07439059 -0.010820822 -0.034448713
000030 2b 06 06 bd 0d a1 aa bd 82 4e 5c 3d fa df 7d 3d
       -0.032720726 -0.08331499 0.05378581 0.06198118
000040 07 4e a2 3a e1 52 a7 3d d9 68 07 3b 05 e7 98 3d
       0.0012382873 0.08170105 0.002066186 0.074659385
000050 a8 c8 3f bd 80 41 30 bb 78 7b e9 3c fc b4 67 3d
       -0.04682222 -0.002689451 0.028501257 0.056569085
000060 9b 9e b4 bd 66 5b 8d 3d 81 41 81 bd 39 0c bb bc
       -0.08819314 0.069021985 -0.06311322 -0.022832977
000070 d0 8a 2a 3d 3e e8 9f bd ed 35 61 bd ea a8 6f 3d
       0.04163629 -0.078079686 -0.05498307 0.0585107
000080 38 85 8a bd a6 2b 5b 3d fb b1 99 bd 51 29 bb bd
       -0.06763691 0.053508423 -0.0750465 -0.0913874
000090 e4 37 6e bd ff 77 96 3d f3 28 09 3d e2 6e 21 3b
       -0.05815877 0.07347106 0.033486318 0.0024632742
0000a0 cd fb 8d 3d 5d e8 03 bd a8 35 90 3d ac da d7 3c
       0.06932793 -0.03220402 0.07041484 0.026349388
0000b0 57 b2 6c 3d b5 bf 69 3d b6 60 9f bc 39 9d 90 3c
       0.057787266 0.05706759 -0.019455295 0.017653095
0000c0 91 83 ed 3b 39 96 23 bd 0f 83 c3 bc 10 3f 6a bd
       0.00724835 -0.039938185 -0.023866205 -0.057189047
0000d0 94 7c 7d bd f8 81 6a bd 15 f7 cc bd 5e aa b3 bd
       -0.061886385 -0.057252854 -0.10008065 -0.08772729
0000e0 1f 1d 16 bd 90 14 2d bd cc b1 c9 3c 8f 20 5d bd
       -0.036648866 -0.042255938 0.024620913 -0.05398613
0000f0 28 d4 a3 bd 18 df 7e bd f4 ad d5 bc 27 e1 a9 3c
       -0.0799945 -0.062224478 -0.026083924 0.020737244
000100 6d d4 4b bd 94 e1 b2 bc 98 a4 70 bc cc 3c 12 bd
       -0.049763132 -0.02183608 -0.01468768 -0.03570251
000110 b1 15 01 3d be 01 ba bd 22 ad c3 bd a1 31 91 3d
       0.031514827 -0.090823635 -0.09554507 0.07089544
000120 7e a6 7b bd 61 0c ac 3b 84 b6 f5 3c 93 33 47 bd
       -0.061438076 0.005250499 0.029994257 -0.04863317
000130 fd 5c 98 bd c2 59 28 3d 00 f6 24 bb 28 bf 0e 3d
       -0.07439611 0.041101225 -0.0025171041 0.03485027
000140 ac b3 a4 bd b8 f8 6b 3c 70 0f c4 bc c3 ef 65 bb
       -0.08042082 0.014402561 -0.023933142 -0.0035085536
000150 ae ff 3e bb 56 b0 96 3d ef 57 68 3d cf 8f 0d bd
       -0.0029144096 0.07357852 0.056724485 -0.034560975
000160 03 cc 3c 3d 00 7a 29 bd b0 79 41 3d a1 d7 c5 bd
       0.046093 -0.041376114 0.04723519 -0.096602686
000170 6f ba dd bc 98 69 31 bc f4 16 d6 3b c8 be 6f 3c
       -0.027066438 -0.010828398 0.006533498 0.014632888
000180 db 71 c5 bd d3 b2 e4 3c 7f e5 cd bd dc de 0a 3d
       -0.09640857 0.027917301 -0.100535385 0.03390394
000190 82 27 65 3d 7f eb 85 bd d4 6b e8 3c ab 08 68 bd
       0.05594588 -0.06539058 0.028371729 -0.05664889
0001a0 57 37 82 3d ee 9e 2a 3d e0 8a 59 bd 1e 89 1a bd
       0.063582115 0.041655473 -0.053110957 -0.03772842
0001b0 98 7f 9c bd c4 7c 6c 3d 85 4f 75 3d 76 2b 76 3d
       -0.07641524 0.057736173 0.05989029 0.06010004
0001c0 e4 a6 9a bd 79 61 44 bd 54 b9 b6 bd 24 25 64 bd
       -0.07551363 -0.04794452 -0.08922067 -0.055699483
0001d0 de f1 db 3c 9d 91 d3 bb 80 d9 71 bc 4e d4 d2 bc
       0.02684873 -0.0064565674 -0.014761329 -0.025736
0001e0 df c9 98 bd c3 2d 32 3d fe 12 86 bd 6e bf 7e bd
       -0.07460379 0.043500673 -0.06546591 -0.06219428
0001f0 02 78 81 3a b5 91 72 bd 1d 1f 74 bc 4b df 06 bd
       0.0009877684 -0.05922099 -0.014899996 -0.032927793
000200 b7 de 8e 3d e6 54 60 3d 2e 38 20 3d b7 0a 30 3d
       0.06976073 0.054768465 0.039116077 0.04297897
000210 99 5c 4c bd 57 84 82 3d f6 b0 e5 bb 4c 7e 2c bd
       -0.049892996 0.06372898 -0.007009621 -0.042112634
000220 54 4d 22 bc 08 72 15 3d 88 ce 1e 3d 6d 48 89 3c
       -0.009906132 0.0364857 0.038771182 0.016758168
000230 f0 6a f7 bc 67 c0 ec 3c 91 d5 e7 3b 1f 08 6f bc
       -0.030202359 0.028900338 0.0070750196 -0.014589339
000240 73 8b 48 3d 78 56 04 3c 11 1b 8f 3d de 55 15 bc
       0.048961114 0.008077256 0.069875844 -0.009114711
000250 5b fc 7b bd ba c9 86 bd 9e 79 22 3d 6d d8 a0 3b
       -0.06151996 -0.06581445 0.039666764 0.0049086125
000260 74 05 2a 3d 2c 58 01 3d f5 b1 3e bd 34 32 54 bd
       0.041509107 0.031578228 -0.04655643 -0.05180569
000270 d1 30 a2 3d cd d9 56 3a 9f c0 8b bd e0 76 18 bc
       0.07919467 0.0008195907 -0.06823849 -0.009305686
000280 c3 72 8b bd 87 3a 8c bb ca b3 f1 bc bf a0 aa bc
       -0.068089984 -0.004279438 -0.029504675 -0.020828603
000290 04 0e 1a 3d 6f 5b a5 bd 95 99 fb bb e1 6c 31 3c
       0.037611023 -0.0807408 -0.0076782205 0.010829181
0002a0 89 dd 35 3d 93 3e 71 3d 47 24 b5 bb dc 52 bd bd
       0.044400726 0.058897566 -0.0055280062 -0.0924432
0002b0 9e 05 b5 3c 08 d9 34 3d 38 67 b3 bd 43 86 ad 3c
       0.022097405 0.04415229 -0.08759922 0.021182185
0002c0 8e 71 bc bd e0 0f 2b bd 28 f0 a2 bc c3 5f a3 bd
       -0.09201346 -0.041763186 -0.019889906 -0.079772495
0002d0 62 61 5f bd 2b ad 77 3d 9a 59 7f 3c eb 39 93 bb
       -0.05453623 0.06046788 0.0155853275 -0.0044929883
0002e0 c5 80 8a bd 81 8a 30 3d 5e cb 2d 3d fe 26 8d bd
       -0.06762842 0.043100838 0.042430274 -0.06892203
0002f0 02 88 8e bd c9 c7 9a 3d bb 51 0e bd 2b 02 b0 bd
       -0.06959535 0.07557637 -0.034745913 -0.085941635
000300 b8 c8 2a bc 78 59 87 bc d7 60 a2 bd 0a b4 4f 3d
       -0.010423832 -0.016522154 -0.07928627 0.050708808
000310 a0 95 3a 3d 80 46 5d bd 1d 19 d0 bc e5 56 06 3d
       0.04555285 -0.054022312 -0.0254026 0.032797713
000320 a4 32 a3 3d dc 3f ea bc 04 0a f6 3a a2 b4 16 bd
       0.07968643 -0.028594904 0.0018771295 -0.03679336
000330 06 d7 ab bd 4a 70 5b 3d b0 ca dc 3c b0 a8 99 3b
       -0.08390622 0.053573884 0.026952118 0.0046892986
000340 62 71 7b 3d e0 db 9e bd 58 36 b5 bc ca ed 88 3d
       0.061387427 -0.077567816 -0.02212064 0.0668598
000350 62 de 6a bd 3a 06 c3 3c 5d b3 0a bd 86 a8 1e bd
       -0.057340987 0.02380668 -0.03386246 -0.038734935
000360 a9 f5 e3 3c 73 e8 a9 bd 05 34 46 3d 80 25 aa 3b
       0.0278271 -0.08296289 0.048389453 0.0051924586
000370 c8 52 9f bd 90 66 88 3c 47 e3 b9 bc 08 43 7b 3c
       -0.07779461 0.016650468 -0.022691382 0.015335806
000380 e4 ab 52 bd e9 fb 35 3c 72 00 23 3d 8c 94 47 3d
       -0.05143346 0.011107423 0.039795347 0.04872565
000390 1c 90 80 3d c0 c4 66 bd bc 6c a2 3c ae a7 18 3d
       0.06277487 -0.05633998 0.01982724 0.037269287
0003a0 29 16 6f bd 56 43 08 3d a8 5b 10 bc 73 fe 9d bc
       -0.058370743 0.03326734 -0.008810915 -0.01928637
0003b0 db b4 9b bd 68 70 b3 ba 12 25 5b 3d 80 22 f8 3a
       -0.07602855 -0.0013690116 0.05350215 0.001893118
0003c0 d0 b0 43 bd 06 5a 67 3d a0 67 9a bd 80 d3 9f 3c
       -0.047776043 0.056482337 -0.07539296 0.01951003
0003d0 07 2e b0 bd bd 44 73 bd c0 22 1e 3b d4 53 84 bc
       -0.08602529 -0.059391726 0.00241296 -0.016153254
0003e0 2e a4 26 3d 03 2a 84 3c f1 f6 14 bd 7c dc a8 bc
       0.040683918 0.016133314 -0.036368314 -0.020612948
0003f0 8d 25 9d bd d5 f3 80 bd c9 55 a2 3d 90 6b d9 bb
       -0.07673178 -0.06296507 0.079265185 -0.006635137

fc2.bias f4 [128]
000000 52 d6 13 bd ff 91 a5 bd f6 15 eb 3d 18 ea 4a 3e
       -0.036093064 -0.08084487 0.11478798 0.19815862
000010 1b ce 5b bd b7 f7 2d bd ec 06 44 bd 6f ad 9a 3d
       -0.053663354 -0.042472567 -0.047858164 0.07552611
000020 68 c5 38 3d 82 fd 43 3d 20 1f 87 bd 84 22 b0 3d
       0.045110136 0.047849186 -0.065977335 0.08600333
000030 f3 c3 7e 3d b7 36 08 3e a8 5c 63 3e 72 32 3f bd
       0.06219859 0.13302122 0.22203314 -0.046678968
000040 28 ac 9f bd b8 17 69 3d 46 78 d5 3c c8 81 5c 3e
       -0.07796508 0.056907386 0.026058327 0.21533883
000050 b5 f4 47 bd c9 6d 97 3e 15 8a a7 3d 6f 01 70 bd
       -0.048817355 0.29575947 0.08180634 -0.058595117
000060 d0 23 23 bd e4 95 a5 3e 53 47 85 3e e4 ef a6 bd
       -0.039829075 0.3234092 0.2603098 -0.08151224
000070 30 f7 b6 bd 13 18 33 bb 43 c5 29 3e 21 6e cc 3c
       -0.08933866 -0.0027327582 0.16579156 0.024954857
000080 37 b1 6c bd ce 05 9e 3d ec 58 e9 3d 60 c9 46 3d
       -0.057786193 0.07715951 0.113939136 0.04853189
000090 79 0a 84 bd 63 b2 a7 3e 5d 13 3d 3c f9 f7 85 3d
       -0.0644731 0.32753286 0.011540261 0.06541438
0000a0 a8 3c 01 3d fc 8b 9f bd 19 3c 61 3e 6e 55 0c bd
       0.031551987 -0.07790372 0.21995582 -0.03426116
0000b0 25 da 89 bd 03 97 90 3e 5d 7f ad bd 61 3a ba 3c
       -0.06731061 0.28240213 -0.08471558 0.022732915
0000c0 fc 35 aa bd 3a 1b 8d 3d 3d 42 88 bd 8c 1b 1b 3e
       -0.08311078 0.06889959 -0.06653259 0.15147227
0000d0 cd 29 a4 3d 0c 77 b1 3d 8b b8 84 3d 5d d2 83 3d
       0.08015785 0.086652845 0.06480511 0.06436608
0000e0 56 60 78 3e 37 3c 36 3e 61 ed 88 3e ed 3b 54 3d
       0.24255499 0.17796408 0.26743606 0.051814962
0000f0 f2 c9 ef 3d 81 29 3b 3d cb f6 6c 3e b3 dc c1 bd
       0.1170844 0.045693878 0.23141019 -0.09465923
000100 d2 e8 28 3e 66 86 2c 3d f1 fc ac 3c 1c 10 c6 bc
       0.16495064 0.04212036 0.021116706 -0.024177603
000110 b6 7f 0d 3c b8 d2 51 3d fa 38 33 3e 90 11 95 3d
       0.008636406 0.051226348 0.17502204 0.072787404
000120 58 bc d1 bc b2 52 88 3e bd f7 42 3e 29 21 62 bd
       -0.025602505 0.26625592 0.19039817 -0.055207405
000130 04 54 90 bd ae 0d 49 3e 7d 11 8c 3d 5a 8d 60 bd
       -0.07047275 0.19634125 0.06839273 -0.054822303
000140 c0 51 a3 bd da 5b 78 3e a7 88 be bc 9b 44 a2 3b
       -0.07974577 0.24253789 -0.02325852 0.004952026
000150 0a cd 9f 3d 80 5d f3 bc 07 7f 1d 3d 36 9d b9 3d
       0.0780278 -0.02970767 0.03845122 0.09063189
000160 87 34 09 3d f1 a2 8d 3b 67 c1 2b bd ad 6d e4 39
       0.03349736 0.0043224026 -0.04193249 0.00043569264
000170 9b 95 44 3e c1 8c 5c 3e 2e d7 1e 3e b7 e5 10 3e
       0.19197695 0.21538068 0.15511772 0.1415013
000180 46 3c 6a bd 5d ed 53 bd c0 bc e8 3d 36 ce 7f 3c
       -0.057186387 -0.05174004 0.11364126 0.015613129
000190 0a d2 02 3e b0 17 0a 3e f4 5a 28 bd a8 cf 2a 3e
       0.12775436 0.13485599 -0.041102365 0.16680777
0001a0 32 0a ad bd 4e 28 88 3e 13 64 c2 3d 0b 74 82 3d
       -0.0844921 0.2659325 0.09491744 0.0636979
0001b0 69 f8 8f bd 49 ee 8c 3d b8 42 69 3e 52 cc 2c 3d
       -0.07029802 0.06881387 0.22779357 0.042187043
0001c0 97 ab 78 3c 84 8a 96 3d d7 b8 a2 3d 7a dd 65 3d
       0.015177629 0.073506385 0.07945412 0.05611942
0001d0 18 1b f8 3c 5e 60 4d 3d 5e e4 50 3e 9a 09 b6 bc
       0.030286357 0.05014073 0.20399615 -0.022221375
0001e0 05 2a 21 3e 74 e0 19 bd 00 2d 95 b9 b0 fa 76 3e
       0.15738685 -0.03756757 -0.00028453022 0.24119067
0001f0 e2 3b c7 bd 85 26 5d 3d e8 29 ff bb 1d da a3 bd
       -0.097282186 0.053991813 -0.007786978 -0.08000586

fc3.weight f4 [2, 128]
000000 4a 02 6d bd 5a 43 64 3a e5 49 13 3f 1f e7 16 3f
       -0.05786351 0.0008707546 0.5753463 0.5894641
000010 5a 52 87 3d 2c 28 8d 3d ad 0f a3 3d 85 45 34 3d
       0.06607504 0.06892428 0.07961974 0.04401161
000020 08 65 5b 3f da 3f 2e bd eb c8 26 bd 48 53 14 3f
       0.85701036 -0.042541362 -0.040718954 0.5793958
000030 1c 2a 3f bd 3a ee 5e 3f db ab 20 3f dc 88 92 bd
       -0.046671018 0.87082255 0.6276223 -0.0715501
000040 f4 3f b8 3c cb 4a df 3e 23 ec 4f bd f4 54 27 3f
       0.022491433 0.4361175 -0.050762307 0.65364003
000050 44 dd 85 bc 97 ac 13 bf 9b 93 e6 3c 38 c0 56 3c
       -0.01634086 -0.57685226 0.028146556 0.013107352
000060 41 a1 73 bd 75 24 29 3f 72 35 99 bf 9b 02 43 bc
       -0.059479956 0.66071254 -1.1969435 -0.011902477
000070 86 3c 48 bc f4 43 35 bf 3e dc 1e 3f a7 a7 30 3d
       -0.012221461 -0.70806813 0.6205481 0.043128636
000080 2d 4e 2a bd 65 94 ad bc bf ba 3a 3f 89 33 81 bd
       -0.04157846 -0.021188924 0.729412 -0.06308658
000090 9b c1 db 3c 8c 06 16 3f 5c 9b 58 bd 20 76 6b bd
       0.026825717 0.5860374 -0.052882537 -0.0574857
0000a0 24 34 8e 3d 0a 83 f1 39 d8 78 37 3f 1e e7 fc 3c
       0.06943539 0.00046064734 0.7166877 0.030871924
0000b0 98 49 db 3a b6 c6 11 3f d2 ce 3c bd cf 71 ec bc
       0.0016730307 0.56943834 -0.046095677 -0.028862862
0000c0 0d c6 4d bd 51 b8 04 bf 27 63 97 bf 30 6e 25 3f
       -0.050237704 -0.51843745 -1.1827134 0.6462126
0000d0 8e 95 00 bd 7a 54 15 bf 92 cc 27 3f 7c 88 93 bc
       -0.031392626 -0.58332026 0.65546525 -0.018009417
0000e0 16 3f 0e 3f 31 1d 1d 3f 1c 9c 0f 3f 5a e3 6b bd
       0.5556501 0.6137267 0.5609758 -0.057589866
0000f0 a0 f9 da be 09 f6 a7 bc c6 c1 0a 3f 88 51 03 3d
       -0.42768574 -0.02050306 0.54201925 0.032060176
000100 39 aa 4b 3f 9d f4 84 3d 2b f4 86 bd ba b8 36 bd
       0.79556614 0.06491969 -0.0658954 -0.044609763
000110 39 21 71 3d 4f 22 05 3d 16 da 35 3f 16 e1 48 3f
       0.058869574 0.032503422 0.710359 0.78468454
000120 76 fa ac bd f4 39 1e 3f d7 d8 20 3f 6c 94 51 bb
       -0.08446209 0.6180718 0.6283087 -0.0031979335
000130 f2 2b 73 bd 18 ea 29 3f ed 60 00 3c 60 58 c3 3c
       -0.05936808 0.66372824 0.007835609 0.023845851
000140 2f be a5 3d c6 dd 4d 3f 9d 84 a8 3d f6 7f c2 bc
       0.08092915 0.80416524 0.08228419 -0.023742657
000150 e1 ad 90 3e f0 8c 9b bc 07 68 37 bd 38 1e 2b 3f
       0.2825766 -0.018988103 -0.044776943 0.66842985
000160 c7 d1 9b bd 07 e3 0e 3d 09 d7 06 bd b8 66 71 3d
       -0.07608371 0.03488448 -0.032919917 0.05893585
000170 dd 54 11 3f 1a c2 13 3f 16 dd 04 bf 36 41 2c 3f
       0.56770116 0.5771805 -0.5189985 0.67287004
000180 f4 47 a2 3d 1a 0b 7e 3d aa 1a 2b 3f 3f 2a db 3c
       0.0792388 0.062022306 0.6683756 0.026753543
000190 3d 58 5e 3f 28 43 ef be 0c e8 fb 3c db 87 56 3f
       0.8685339 -0.46730924 0.030750297 0.8380105
0001a0 49 a0 07 bc bc be 23 3f 67 be 61 3f 8f e4 30 3f
       -0.008277961 0.6396291 0.88181156 0.6909875
0001b0 f0 45 a9 bc 5f ad 64 bd 45 a4 1f 3f 08 cf 69 bd
       -0.020663232 -0.055829402 0.6236003 -0.057082206
0001c0 23 f2 7b 3d 9b 5a 9b bf 11 e6 52 3f a6 f5 0c bd
       0.061510216 -1.2137026 0.82382303 -0.034413956
0001d0 56 64 92 3c 35 d0 2e 3d a3 12 06 3f 5c 91 61 3c
       0.01787011 0.04267903 0.5237219 0.0137675665
0001e0 68 06 11 3f 79 e3 08 bd f0 60 a0 3b 05 0c ef be
       0.566504 -0.03342006 0.0048943684 -0.46688858
0001f0 18 be 12 c0 08 65 b3 bb e3 c7 d9 3c 32 64 7d bd
       -2.2928524 -0.0054746903 0.026584571 -0.06186313
000200 09 ea 96 3b 07 34 23 3a b5 a1 64 3f 23 b6 33 3f
       0.004605536 0.0006225709 0.89309245 0.70199794
000210 39 c8 47 3d ff 67 88 bd 63 28 76 bd 69 0f 63 bd
       0.04877493 -0.06660461 -0.06009711 -0.05543462
000220 fe 43 3e 3f a0 3a f9 bb 28 d8 b9 bc a1 1b 67 3f
       0.743225 -0.0076058656 -0.02268608 0.90276533
000230 05 59 9b 3c 3f bd 21 3f df f2 08 3f dc ba 07 bd
       0.018963346 0.6317939 0.5349559 -0.033137187
000240 0a 8b f7 bc b1 2e 91 3f 5e 67 c0 bc bd 22 2e 3f
       -0.030217666 1.1342374 -0.02348679 0.68021756
000250 ee f8 98 bd 30 3f 7a be b0 08 40 bd e3 5e 7a bd
       -0.074693546 -0.24438167 -0.046883285 -0.061125647
000260 96 07 2a 3c 92 3b be 3e 49 41 5d 3d 96 d8 4b 3d
       0.010377785 0.37154824 0.05401734 0.0497671
000270 ab 5c 47 bb c9 4f bb 3d 12 0f e2 3e 62 4a 01 bd
       -0.0030420225 0.09146077 0.44152123 -0.031565078
000280 b1 ce 52 ba 40 5c 92 bc a0 12 4c 3f 64 68 86 3c
       -0.00080416637 -0.017866254 0.7971592 0.0164072
000290 48 42 43 bd d9 db 8f 3e 6d fb 05 3b 30 b6 ae 3c
       -0.047670633 0.28097418 0.002044405 0.021327108
0002a0 9e 60 58 bd 24 40 6d bd 2b 70 28 3f 0e b3 73 bd
       -0.052826516 -0.057922497 0.65796155 -0.05949693
0002b0 30 e6 3a bd bc 8d cb 3e 29 07 0f 3b 5d a7 9e bc
       -0.04562968 0.39756572 0.0021824336 -0.019366914
0002c0 a0 5d 95 bc 07 a5 23 bf 01 f4 93 bf 1a ce 6b 3f
       -0.01823312 -0.63923687 -1.1558839 0.9211136
0002d0 fe ba 26 3d 8b 5a 49 3f 61 b8 66 3f 04 ed 74 3b
       0.040705673 0.7865378 0.9012509 0.0037372718
0002e0 35 98 22 3f ea 62 29 3f f0 46 bc 3e c4 4c a5 3c
       0.635135 0.66166556 0.3677287 0.020178206
0002f0 b1 79 02 bf 01 28 05 bd cc fd 86 3f 40 48 7b bd
       -0.50966936 -0.032508854 1.0546203 -0.0613482
000300 81 d9 35 3f 9a b0 06 3d d1 78 85 3d de 9a 73 3d
       0.7103501 0.032883264 0.065171845 0.059473865
000310 cf bb 95 bd ff 49 13 bd 6d 9d 35 3f f8 d3 36 3f
       -0.07311212 -0.03595924 0.7094334 0.7141719
000320 44 27 33 bd 6c 98 f1 3e 4c 4a 5f 3f c8 90 07 3d
       -0.04373862 0.471866 0.87222743 0.03309706
000330 ba a5 e8 bc 34 04 28 3f 7e 4d 04 bd 19 19 1f bd
       -0.028399337 0.65631413 -0.032300465 -0.038842294
000340 e8 b8 a6 bd d4 3c 15 3e 8a 18 4c bd c7 53 7b bc
       -0.08140737 0.14573985 -0.04982809 -0.015339798
000350 4e 5f 8d 3f ab 8f a6 3d 0d 96 56 bd 0f c1 2e 3f
       1.104471 0.08132871 -0.052389193 0.68263334
000360 6a 82 8b 3c d7 9e 86 bd 2d a4 0b 3d 5f 79 17 bd
       0.01702996 -0.06573265 0.034092117 -0.036980983
000370 47 3b 79 3f f1 0b 2e 3f f5 b4 61 be 1a bb 38 3f
       0.97356075 0.6798697 -0.22041686 0.72160494
000380 10 e1 20 3d 00 de 3a 3a 32 d6 f3 3e 33 78 93 bc
       0.039277136 0.00071284175 0.47624356 -0.018001651
000390 fa e6 47 3f 00 7d 19 bf a8 59 2f bc 51 44 39 3f
       0.7808682 -0.5995636 -0.010702528 0.7236987
0003a0 d8 e6 1e bd b5 c6 b3 3e e2 24 25 3f 71 6e 23 3f
       -0.03879437 0.3511254 0.64509404 0.63840395
0003b0 e0 50 32 bc 5f d4 85 bd d2 e0 28 3f 6d cf 67 bd
       -0.01088354 -0.06534647 0.6596805 -0.0565943
0003c0 66 d3 76 bd 81 c7 08 c0 61 45 3c 3f 72 63 5f bd
       -0.0602602 -2.1371768 0.73543364 -0.054538198
0003d0 ea b0 c5 3c 09 50 4d bd 73 4b 66 3f 88 00 6e bd
       0.02413221 -0.050125156 0.89958876 -0.058105975
0003e0 a5 69 bd 3e 56 d9 4d 3d 68 86 80 3c bb 1e 86 be
       0.36994663 0.050256096 0.01568909 -0.2619532
0003f0 5d f5 0c c0 24 30 28 bc 6a 51 b6 bc eb de a4 3d
       -2.2024758 -0.010265384 -0.022255618 0.08050331

fc3.bias f4 [2]
000000 e4 ee 53 3e 2a 81 ca bd
       0.20696598 -0.09887917
