cartpole-implementation/best_cartpole_model.pth (torch, 73317 bytes, 6 tensors)

fc1.weight f4 [128, 5]
000000 97 79 8c be f8 9e b3 bd 13 51 76 bf 34 58 10 3f
       -0.27436516 -0.08770555 -0.9621746 0.5638459
000010 86 ad 04 bf d7 74 ce bd 9b a8 02 3e 82 0c 0f 40
       -0.51827276 -0.10080879 0.1275963 2.2351384
000020 4e 01 43 3e a4 b1 1e 3f 2b cd 90 3e 43 3c 94 be
       0.19043466 0.6198981 0.2828153 -0.28952226
000030 1b 46 9d 3e 88 e6 bf be cd e5 b1 bd c6 9d 72 3e
       0.3071755 -0.3748057 -0.08686409 0.23692998
000040 1e 3e 7d be 88 6c c0 3e b2 3d ab 3e d4 f1 9a bd
       -0.24730727 0.37582803 0.33445507 -0.07565656
000050 d6 5d b0 bd 73 df 57 3e 0c f8 30 bf b2 d1 a0 3e
       -0.08611648 0.21081333 -0.6912849 0.31409985
000060 02 3e 1f bf e2 f5 79 bf ae 5e ad 3e 2a c2 1c 40
       -0.6220399 -0.9764081 0.33861297 2.4493508
000070 33 70 fe bd 65 a4 11 3f 95 37 8a 3f b4 49 3f 3e
       -0.12423744 0.5689147 1.0798212 0.1868046
000080 48 49 e0 3f 5c 48 9c bd 70 3b be 3e f4 af 8a 3e
       1.7522364 -0.07630989 0.37154722 0.27087367
000090 7b 78 5f 3d 08 d5 cc be b0 d1 1e 3f e3 43 a5 be
       0.05455826 -0.4000628 0.6203871 -0.32278356
0000a0 9d 97 6d bc 0c a9 fb bc 82 b3 52 3f 68 59 0b 3e
       -0.014501479 -0.030720256 0.8230516 0.13608325
0000b0 e9 28 75 3e 76 08 95 3c d2 d9 27 3f f5 d9 95 be
       0.23941387 0.018192511 0.6556674 -0.2926785
0000c0 e8 a0 f9 bd 2c 4c 53 bd 87 0c f3 be d4 1c c5 3e
       -0.121888936 -0.051586315 -0.47470495 0.38498557
0000d0 c1 5d f9 3e c0 54 14 3e 1a f9 14 3e d7 6b 9e be
       0.4870434 0.14485455 0.1454815 -0.3094165
0000e0 85 25 05 bd 3a b8 fa 3d 29 68 f5 3e 9d 7f 17 bf
       -0.032506485 0.1224217 0.4793103 -0.591791
0000f0 37 7e ba 3d 59 51 ec bd 0d f1 3d bf 05 df b9 3e
       0.09106105 -0.11538953 -0.7419594 0.36302963
000100 23 46 b1 3e 8d 0f 82 be 9f 31 b8 3d b8 00 07 c0
       0.34623823 -0.2540249 0.089938395 -2.1094189
000110 8a bc 2a bf f8 44 60 bf ce 46 e4 3e b5 cc 08 bf
       -0.6669394 -0.8760524 0.4458527 -0.5343736
000120 a2 39 24 bf b5 18 3f 3f cb 92 b9 3e c1 f2 5d 3f
       -0.6415044 0.74647075 0.36244807 0.8669854
000130 1e aa 5a be 3e 5b 4e c0 0f 7d 2a 3f 47 4c fa be
       -0.21353957 -3.224319 0.66597074 -0.4888632
000140 80 9d 92 3f 21 59 04 3f b0 5e 85 3f 7e fe d2 3e
       1.1454315 0.516985 1.0419521 0.41209787
000150 b4 67 95 3e 98 a3 fb bd 12 69 af 3d ad 2d 0e 40
       0.29180682 -0.122870624 0.085649624 2.2215378
000160 7a 0c 02 3f 44 45 3d 3f f5 05 74 3d c3 6d 15 3f
       0.5080029 0.73933816 0.059575994 0.5837061
000170 eb 40 0f 40 5c a0 19 be 16 9b de b9 8d 5a ec be
       2.2383373 -0.15002578 -0.00042458688 -0.46162835
000180 dc a1 f1 3e 38 a2 a9 be f1 8c c0 3e 09 4a ab 3e
       0.471938 -0.33131576 0.3760753 0.33454922
000190 12 5f 90 3f a6 96 d6 3e 3e c3 1d 40 c8 bf ca 3c
       1.1279013 0.4191181 2.4650416 0.024749652
0001a0 b9 bf 02 3f de 00 19 3e 27 2c b6 3e dd d7 16 3d
       0.51073796 0.14941737 0.3558056 0.036826957
0001b0 32 32 b3 be 96 50 42 3e 42 b7 9f be a3 27 2e 3e
       -0.34999233 0.18976054 -0.31194502 0.17007308
0001c0 46 b8 32 40 a6 d8 df be aa 38 3d 3f 59 ed 36 3e
       2.7924972 -0.43719977 0.7391459 0.17863978
0001d0 33 74 63 3e c6 05 f6 3f f5 2c 4a 3e ff 16 89 3b
       0.22212295 1.9220512 0.19743712 0.0041836496
0001e0 d1 b5 cc 3e 19 86 e3 be fc bc f2 bc 07 b9 e2 3e
       0.39982465 -0.44438246 -0.02963113 0.4428179
0001f0 b4 7c 80 3d da 39 d6 bd da 78 d6 be 0f 0d da be
       0.06273785 -0.10460253 -0.41889077 -0.42588088
000200 ce ff e7 3c 2a f4 53 3c 3f 80 66 be e8 84 8f 3e
       0.02832022 0.012936631 -0.2250986 0.28031087
000210 38 d1 9b c0 24 62 28 bf 42 1a c6 bf db ba 86 be
       -4.8692894 -0.6577475 -1.5476763 -0.26314434
000220 1b 28 19 3f ae 55 52 be e5 b6 ad 3e 16 68 77 be
       0.5982682 -0.20540497 0.339286 -0.241608
000230 36 0c 9b 3e 43 19 28 bd a0 44 a1 be a9 11 f8 3e
       0.30282754 -0.041039716 -0.3149767 0.48450974
000240 8b 64 1b be ad 11 f6 3c 1a 1a bc bd d7 61 2c c0
       -0.15175073 0.030037725 -0.09184666 -2.6934717
000250 49 c8 ac be 5a 5c 7c bf 57 f7 e9 bf 11 32 11 bf
       -0.33746555 -0.9857842 -1.8278607 -0.5671702
000260 9f ed 97 bf d1 c2 5b 3e e3 93 01 bf a9 c9 4f 3d
       -1.1869391 0.21461035 -0.5061628 0.050729427
000270 3a 54 e9 bd a0 60 33 c0 e8 24 e1 be a0 96 9b be
       -0.11393018 -2.8027725 -0.4397347 -0.30388355
000280 b0 03 65 3d 58 c5 aa 3e bc 35 88 3e bc f2 c1 be
       0.05591172 0.33353686 0.26603496 -0.37880504
000290 6e d9 ce 3e b7 77 55 3e 0b ea f7 be fd f2 b3 be
       0.4040026 0.20846449 -0.48420748 -0.35146323
0002a0 03 6e 23 3f b2 11 05 bf 2a 81 02 3e c5 25 fb bd
       0.6383974 -0.51980126 0.12744585 -0.12263063
0002b0 c5 b7 2f 3f 84 a5 ef 3e ce da 05 3e 55 6c cc be
       0.68639785 0.46805966 0.13071749 -0.399264
0002c0 62 65 d3 3e 84 1c 80 be 9b bd 72 3e 4a 3b 07 bf
       0.41288286 -0.25021756 0.23705141 -0.5282484
0002d0 f2 4c 74 bd b7 99 e3 be 33 1a 68 bd c9 35 10 3f
       -0.059643693 -0.44453213 -0.05666561 0.5633207
0002e0 73 95 19 be 5c d0 1a 3e c5 1f 3d be 2d ee a0 bf
       -0.14998417 0.15118545 -0.1846915 -1.2572685
0002f0 bc 5f 03 be 8e 97 12 3f d8 b9 c1 3e 45 96 12 3e
       -0.12829489 0.57262504 0.378371 0.14315136
000300 0e 2e 81 bf 99 48 09 3f 41 27 65 3c ae d2 c3 3d
       -1.009218 0.536264 0.01398641 0.09561668
000310 3f 82 89 bd 4e fb 6c bf ba b5 70 3e b5 c7 46 bf
       -0.067142956 -0.9257096 0.23506823 -0.7764848
000320 26 1e b3 be fd 3c 3b be fd 20 67 bf b7 fe 6c 3e
       -0.3498394 -0.18284984 -0.9028471 0.23144041
000330 2c fd c7 be bb 9f a8 3e 86 62 a6 3b af 98 22 40
       -0.39060342 0.32934365 0.005077663 2.540569
000340 37 6e e8 bc 59 e6 de bd 4c 1b 32 3d 43 34 3a 3f
       -0.028372867 -0.10883779 0.043483064 0.72735995
000350 d1 94 ad bf 46 a4 a7 be aa d4 90 be 13 a7 b5 be
       -1.356104 -0.32742518 -0.2828725 -0.3547903
000360 d4 58 ee bc c9 18 0b 3f db 26 16 3f 5b 9b 44 3d
       -0.02909509 0.54334694 0.5865304 0.04799972
000370 84 e4 b1 bd 4d ea 8b 3e 29 88 65 bf 47 d3 76 3e
       -0.08686164 0.27327195 -0.8966089 0.24104033
000380 7a 47 25 bf f1 a5 17 3e 29 bb 08 be 85 3e e7 be
       -0.6456219 0.14809395 -0.13352646 -0.45164886
000390 ff 65 15 3f 89 26 cb bc 2f 3b 0a 3f b1 87 c6 be
       0.5835876 -0.024798648 0.53996557 -0.387754
0003a0 c1 ee 0a bc 9e cb 06 3f 8f 0a d3 3e 5c 0f 7e be
       -0.008479775 0.52654445 0.41218993 -0.24810547
0003b0 e4 8c dc bb 1a 0d 33 c0 e8 cc 2b bf 83 01 61 bf
       -0.0067306627 -2.7976747 -0.6710954 -0.8789293
0003c0 43 74 4c bf 27 9b 9f 3e 2a bc 3c 3e 3d 58 18 3c
       -0.798649 0.3117306 0.18431154 0.009298381
0003d0 a5 13 a2 3d ec b6 98 bf e0 f5 e1 be f4 4e 51 be
       0.07913903 -1.1930823 -0.441329 -0.20440274
0003e0 2b 58 56 be ad 65 f5 3d db a5 f5 bd 04 2a 20 3e
       -0.20932071 0.11982284 -0.11994525 0.15641028
0003f0 c9 e6 55 3e b1 08 ed 3e d1 94 e8 be 79 b4 cf 3f
       0.20888819 0.46295694 -0.45426038 1.6226951

fc1.bias f4 [128]
000000 3c 0a 1c 3f df 76 03 3f 5d 4e 02 3d eb fb fe 3e
       0.60953116 0.5135326 0.031813014 0.49801573
000010 db 2e 19 3f e2 4e e1 be c0 38 87 3e c5 58 d2 3e
       0.5983712 -0.44005495 0.26410484 0.4108335
000020 49 5e 07 3f ac 4f f3 be 5a c4 04 3f fc 5d 1c 3f
       0.5287824 -0.47521722 0.5186211 0.6108091
000030 e0 2c 92 3e 72 9f 85 be 25 9d 54 3e 0d 2b c6 3d
       0.28549862 -0.2609821 0.20763071 0.0967618
000040 64 a0 79 be 75 7b 9f 3e 4e ed 08 3f 2b 8e cb 3e
       -0.2437759 0.31148878 0.534871 0.39756903
000050 b8 c8 fc 3d 44 d8 1d be 17 ac d1 be c3 24 c9 3e
       0.123429716 -0.1541453 -0.40951607 0.3928586
000060 a7 20 ad 3e 77 cf 1a 3f 98 4b 44 bf f0 af 06 3f
       0.33813974 0.60472816 -0.76677847 0.5261221
000070 76 53 19 3f ff 1b 26 bf b9 81 52 bd 75 3d e0 bd
       0.59892976 -0.6488647 -0.051393244 -0.10949222
000080 95 1e 97 be ed 6f 8f 3e 87 65 19 3f dc a5 51 3f
       -0.2951552 0.2801508 0.59920543 0.81893706
000090 20 7e 28 3e 40 58 73 be 9e 60 35 3e 21 1a 16 3f
       0.16454363 -0.23764133 0.17712638 0.5863362
0000a0 fb 1c 0c 3f df 40 1d 3f 00 f4 7e 3e 9c 1c 85 3e
       0.5473172 0.6142711 0.24897766 0.2599839
0000b0 45 e5 43 3f 1d c2 23 3f dd 4f d8 3e 09 f9 a9 bd
       0.7652171 0.6396807 0.4224843 -0.08299453
0000c0 c9 e5 07 bf 36 50 40 be e2 dc 11 3f f6 dc d9 bb
       -0.53085 -0.18780598 0.56977665 -0.006648655
0000d0 d7 20 4e be 5f 8e d1 3e d9 23 18 bc 25 72 0d 3f
       -0.20129715 0.40928933 -0.0092858905 0.55252296
0000e0 3f ab e1 3d 1b af d0 3e 1d ec 2d 3e d0 fa 16 3f
       0.11018991 0.40758595 0.16984601 0.5897646
0000f0 ac ef 95 3e 40 1a 1d be 54 06 92 be c9 c1 1c 3f
       0.29284418 -0.15342045 -0.28520453 0.6123319
000100 03 f7 95 bd d8 6d d9 be 66 d9 1a 3f 17 95 2a 3f
       -0.07322504 -0.42466617 0.60487974 0.66633743
000110 93 ce 46 bf 1e d7 b8 3e c3 fc de bd 75 a8 25 3f
       -0.7765896 0.3610162 -0.10888054 0.6471017
000120 d3 b5 9d 3d 51 b9 15 3f 15 0c 34 3e f9 dd 91 be
       0.07700696 0.58485895 0.17582734 -0.28489664
000130 41 70 d5 3e 57 1a 9f 3e 84 9b ca be e3 4a b5 be
       0.41687205 0.31074783 -0.39571774 -0.35408697
000140 9b 7d d5 be 21 e3 16 bf 0b 44 25 3f bc c6 1e 3f
       -0.41697392 -0.5894032 0.6455695 0.62021995
000150 a1 24 9d 3e 36 06 22 3f c2 90 02 3f 1b 50 08 3f
       0.30692008 0.6329073 0.5100213 0.5324723
000160 cd c1 f7 3e 8a 38 b8 3e 65 8e 6a 3e 51 e5 c8 3e
       0.48390046 0.35980636 0.22905882 0.39237455
000170 6c cf 85 3e 76 b6 2e be 15 ed fd 3e 11 67 5e be
       0.26134813 -0.17061791 0.49594942 -0.21719004
000180 53 6a 26 3f e6 9d 20 3f 11 0a 3c bf 3a f0 fa 3e
       0.6500599 0.62740934 -0.7345286 0.49011403
000190 bb 81 ad be 71 1e 40 be 7d 3c de be 8a a7 6f bd
       -0.3388804 -0.18761612 -0.43405524 -0.058509387
0001a0 9e ea c8 be a6 05 91 be bb af bd 3e 7d db cc 3e
       -0.392415 -0.28324622 0.37048134 0.40011206
0001b0 22 9e 0b bd 55 8c 02 3f 98 33 36 3f 69 cc ec 3e
       -0.034086354 0.5099538 0.71172476 0.46249703
0001c0 6c b6 c1 3e c1 10 56 3e 00 9e 13 3e d5 43 44 3f
       0.3783449 0.20904829 0.14415741 0.76666003
0001d0 96 74 48 3d 62 7b 94 3e d2 91 d2 3e cb 15 19 3d
       0.04893931 0.29000384 0.41126877 0.0373743
0001e0 d2 ed 0d 3f 96 09 c6 3e 63 80 d5 be 50 a5 77 bd
       0.5544101 0.38679188 -0.41699514 -0.06046039
0001f0 a4 c0 55 3e 6c fe d9 be 38 6e 5e bd 2d 70 cf be
       0.20874268 -0.4257692 -0.05430433 -0.4051527

fc2.weight f4 [128, 128]
000000 e5 52 85 3d e0 06 ff 3b 4c df 9c bd 37 3d 1c 3c
       0.065099515 0.007782802 -0.07659778 0.009536079
000010 ef 74 9d 3c 80 24 27 bc b2 48 35 3d 58 09 2d 3d
       0.019220797 -0.010201573 0.04425878 0.04224524
000020 15 03 88 bd 18 5a 98 bd ad 65 32 bc 89 77 0d bd
       -0.06641213 -0.07439059 -0.010888499 -0.034537826
000030 69 5c 07 bd ab 02 aa bd 34 0c 5c 3d 45 ca 7e 3d
       -0.033047114 -0.0830129 0.053722575 0.062204618
000040 ea 36 a3 3a e1 52 a7 3d a4 6f 06 3b c0 c1 98 3d
       0.0012452279 0.08170105 0.002051332 0.0745883
000050 a8 c8 3f bd 80 41 30 bb 78 7b e9 3c a1 b1 67 3d
       -0.04682222 -0.002689451 0.028501257 0.056565885
000060 90 fe b4 bd b3 33 8e 3d 7b 02 81 bd 61 85 bb bc
       -0.088376164 0.069434546 -0.06299301 -0.022890748
000070 9e 25 2a 3d 67 48 9f bd 4a ba 63 bd ea a8 6f 3d
       0.04153978 -0.077774815 -0.05559758 0.0585107
000080 38 85 8a bd 06 b7 5a 3d cf f6 99 bd a2 40 bb bd
       -0.06763691 0.0533972 -0.07517778 -0.09143187
000090 06 cc 6e bd ff 77 96 3d 35 e0 08 3d 05 b0 1c 3b
       -0.05830004 0.07347106 0.033416945 0.0023908627
0000a0 c4 c2 8d 3d 83 08 04 bd 58 41 90 3d 0b 95 d6 3c
       0.06921914 -0.03223468 0.07043713 0.026194116
0000b0 d3 88 6c 3d 4c 4a 69 3d fd a1 a0 bc 9d 7b 91 3c
       0.057747673 0.05695562 -0.019608492 0.017759139
0000c0 60 9b ba 3c 39 96 23 bd 10 29 c4 bc 9d e5 69 bd
       0.022779167 -0.039938185 -0.023945361 -0.057103742
0000d0 94 7c 7d bd 43 d0 6a bd 4b 09 cd bd 01 4c b4 bd
       -0.061886385 -0.05732752 -0.10011538 -0.08803559
0000e0 1f 1d 16 bd f0 60 2d bd f6 c0 cc 3c 4a 42 5e bd
       -0.036648866 -0.042328775 0.024994355 -0.054262437
0000f0 d0 8f a3 bd 18 df 7e bd f4 ad d5 bc 20 03 a9 3c
       -0.079864144 -0.062224478 -0.026083924 0.020631373
000100 6d d4 4b bd 94 e1 b2 bc d2 c6 71 bc cc 3c 12 bd
       -0.049763132 -0.02183608 -0.014756875 -0.03570251
000110 58 8b 01 3d 3c 2a ba bd 8e f3 c3 bd ed 00 91 3d
       0.03162703 -0.09090087 -0.09567939 0.07080255
000120 c7 0a 7c bd 9c 7a a8 3b f0 26 f4 3c 23 18 47 bd
       -0.061533716 0.0051415693 0.029803723 -0.048607003
000130 18 98 98 bd 5d bf 29 3d 00 f6 24 bb 28 bf 0e 3d
       -0.074508846 0.041442264 -0.0025171041 0.03485027
000140 ac b3 a4 bd b8 f8 6b 3c 70 0f c4 bc 74 28 6b bb
       -0.08042082 0.014402561 -0.023933142 -0.0035882266
000150 5b 87 44 bb 31 7f 96 3d 03 20 68 3d e3 d3 0d bd
       -0.0029987905 0.073484786 0.056671154 -0.0346259
000160 f1 7b 3c 3d 20 1f 2a bd 4f 61 41 3d a3 40 c6 bd
       0.046016637 -0.04153359 0.04721194 -0.09680297
000170 d4 63 df bc 98 69 31 bc 6d ff cd 3b c8 be 6f 3c
       -0.027269281 -0.010828398 0.0062865526 0.014632888
000180 0d d2 c5 bd bf 13 e4 3c 1e aa cd bd 15 5b 0a 3d
       -0.09659205 0.027841447 -0.10042213 0.03377827
000190 79 0f 68 3d 7f eb 85 bd d4 6b e8 3c 9a a6 67 bd
       0.05665538 -0.06539058 0.028371729 -0.056555368
0001a0 8f f9 82 3d ee 9e 2a 3d a4 2f 5a bd 4b d8 1a bd
       0.06395256 0.041655473 -0.05326809 -0.03780393
0001b0 0a 92 9c bd 80 5a 6c 3d dd a4 76 3d 76 2b 76 3d
       -0.07645042 0.057703495 0.06021582 0.06010004
0001c0 f4 15 9b bd d9 6f 30 bd 52 55 b7 bd 13 6d 64 bd
       -0.075725466 -0.043075416 -0.089518204 -0.055768084
0001d0 86 ea db 3c aa 11 d6 bb 72 05 6c bc e5 52 d7 bc
       0.026845228 -0.0065328674 -0.014405595 -0.026284644
0001e0 a5 e7 98 bd fa 93 31 3d fe 12 86 bd 6e bf 7e bd
       -0.07466058 0.043354012 -0.06546591 -0.06219428
0001f0 fa 61 3c 3a b5 91 72 bd 23 74 77 bc 4b df 06 bd
       0.00071862305 -0.05922099 -0.015103373 -0.032927793
000200 8d 9d 8e 3d e6 54 60 3d 2e 38 20 3d 78 87 2f 3d
       0.06963644 0.054768465 0.039116077 0.042853802
000210 8d da 4c bd 57 84 82 3d 4d 64 e8 bb 28 01 2d bd
       -0.050013114 0.06372898 -0.007092035 -0.04223743
000220 af 42 1f bc 08 72 15 3d 59 51 1e 3d e3 43 88 3c
       -0.009720488 0.0364857 0.038651798 0.016633933
000230 f0 6a f7 bc 57 46 ec 3c 65 84 e8 3b 79 f8 70 bc
       -0.030202359 0.028842134 0.007095861 -0.014707678
000240 e2 17 48 3d 78 56 04 3c b6 df 8e 3d f5 3c 17 bc
       0.0488509 0.008077256 0.06976263 -0.009230842
000250 5b fc 7b bd ba c9 86 bd 9e 79 22 3d 49 35 9d 3b
       -0.06151996 -0.06581445 0.039666764 0.004797612
000260 71 07 2b 3d 2c 58 01 3d 5c 18 3f bd 8b af 54 bd
       0.041755144 0.031578228 -0.04665409 -0.051925223
000270 63 ef a1 3d 3d 84 43 3a 52 40 8c bd e0 76 18 bc
       0.079069875 0.00074583647 -0.068482056 -0.009305686
000280 c3 72 8b bd 57 4c 90 bb 5f b8 f2 bc 42 9c ab bc
       -0.068089984 -0.0044036317 -0.02962893 -0.020948533
000290 4f 1a 1b 3d 6f 5b a5 bd 39 84 ff bb 52 58 2f 3c
       0.037866887 -0.0807408 -0.0077977446 0.01070221
0002a0 aa 58 35 3d 41 c1 70 3d 20 06 b8 bb a3 9b bd bd
       0.04427401 0.05877805 -0.0056159645 -0.09258201
0002b0 c8 09 b4 3c 7c 55 34 3d b4 19 b3 bd 64 ea ac 3c
       0.02197732 0.044026837 -0.08745137 0.02110786
0002c0 e6 02 aa bd e0 0f 2b bd 0b f3 a3 bc 72 85 a3 bd
       -0.08301334 -0.041763186 -0.020013353 -0.07984437
0002d0 62 61 5f bd 93 2d 77 3d b5 61 7d 3c cb be 95 bb
       -0.05453623 0.060346197 0.01546519 -0.0045698634
0002e0 c5 80 8a bd ff 07 30 3d 5e cb 2d 3d 90 27 8d bd
       -0.06762842 0.042976376 0.042430274 -0.068923116
0002f0 c8 a7 8e bd c9 c7 9a 3d bb 51 0e bd 7f 43 b0 bd
       -0.069655955 0.07557637 -0.034745913 -0.08606624
000300 b8 c8 2a bc 78 59 87 bc 59 a0 a2 bd 0a b4 4f 3d
       -0.010423832 -0.016522154 -0.0794074 0.050708808
000310 32 3a 3a 3d 65 c8 5d bd e4 1c d1 bc cf c9 05 3d
       0.045465656 -0.05414619 -0.025526471 0.032663163
000320 45 f0 a2 3d d7 45 eb bc f8 72 e6 3a 5e 14 17 bd
       0.07955984 -0.028719826 0.0017581871 -0.036884658
000330 97 19 ac bd 4a 70 5b 3d b0 ca dc 3c b0 a8 99 3b
       -0.084033184 0.053573884 0.026952118 0.0046892986
000340 62 71 7b 3d e0 db 9e bd 58 36 b5 bc 9e ab 88 3d
       0.061387427 -0.077567816 -0.02212064 0.066733584
000350 03 5e 6b bd 58 02 c2 3c 9b 27 0b bd fa df 1e bd
       -0.057462703 0.023682758 -0.033973318 -0.03878782
000360 48 f5 e2 3c 16 ed a9 bd 36 b8 45 3d 80 25 aa 3b
       0.02770485 -0.08297174 0.04827138 0.0051924586
000370 e2 9f 9f bd 90 66 88 3c 4b ad b9 bc 08 43 7b 3c
       -0.07794167 0.016650468 -0.02266564 0.015335806
000380 a1 27 53 bd 3e f9 33 3c 07 a6 22 3d fa 0e 47 3d
       -0.051551465 0.010984717 0.039709117 0.048598267
000390 cc 7a 80 3d c0 c4 66 bd bc 6c a2 3c 02 73 18 3d
       0.06273422 -0.05633998 0.01982724 0.037219055
0003a0 65 46 6f bd 56 43 08 3d 2e a3 0f bc 04 fd 9e bc
       -0.058416743 0.03326734 -0.008766932 -0.019407757
0003b0 3b f3 9b bd 22 33 c3 ba 12 25 5b 3d 80 22 f8 3a
       -0.07614752 -0.0014892558 0.05350215 0.001893118
0003c0 d0 b0 43 bd 06 5a 67 3d 32 73 9a bd 11 d8 9e 3c
       -0.047776043 0.056482337 -0.07541503 0.019390138
0003d0 07 2e b0 bd e4 c3 73 bd c0 22 1e 3b d4 53 84 bc
       -0.08602529 -0.059512988 0.00241296 -0.016153254
0003e0 69 24 26 3d d0 23 83 3c f1 f6 14 bd 7c dc a8 bc
       0.040562067 0.016008288 -0.036368314 -0.020612948
0003f0 03 11 9d bd d5 f3 80 bd 9e 8a a2 3d 90 6b d9 bb
       -0.0766926 -0.06296507 0.079365954 -0.006635137

fc2.bias f4 [128]
000000 7b 41 14 bd 08 d3 a5 bd 06 39 1a 3e b5 c2 5c 3e
       -0.03619526 -0.08096892 0.15060815 0.2155865
000010 0d fe 5a bd f9 22 2e bd 80 e9 6a 3d 88 13 9b 3d
       -0.053464938 -0.04251382 0.05735159 0.07572085
000020 63 a3 2b 3d 45 75 11 3d a0 22 86 bd 20 d3 80 3d
       0.041903865 0.035512228 -0.06549573 0.06290269
000030 de 77 7e 3d 6b 8e 1a 3e 47 84 42 3e 5e b6 3e bd
       0.062126033 0.1509339 0.18995772 -0.046560638
000040 28 ac 9f bd 35 32 1f 3e 84 0c d7 3c 5e 07 56 3e
       -0.07796508 0.15546496 0.026251085 0.20901248
000050 b5 f4 47 bd 8b f6 ae 3d 70 95 a7 3d c9 d7 70 bd
       -0.048817355 0.08543118 0.081828 -0.05879954
000060 f4 21 24 bd 21 0b 89 3e 22 21 09 3d ce c3 a7 bd
       -0.040071443 0.26766303 0.033478864 -0.08191644
000070 92 d7 b6 bd 29 71 c3 bc df 7e 14 3e 98 6a c6 3c
       -0.089278355 -0.02385767 0.14501522 0.02422075
000080 ce 9d 6d bd 91 6d 9a 3d ec 6c ee 3d 6e e8 42 3d
       -0.058011822 0.075404294 0.11641869 0.047584943
000090 2c ec 77 bd a6 71 77 3e 52 be 3a 3c 65 fb 4a 3d
       -0.060527965 0.24164447 0.011397915 0.049556155
0000a0 37 8e 00 3d 2b 8a d2 bd 24 cc 45 3e b6 44 67 bd
       0.031385627 -0.1028026 0.19316155 -0.056462012
0000b0 76 7c 89 bd 96 18 89 3e 93 76 ad bd ca f2 ae 3c
       -0.06713192 0.2677657 -0.08469882 0.021356005
0000c0 d0 23 ac bd c5 e8 84 bd a2 f2 f7 3c 6d 3c 07 3e
       -0.08405268 -0.0648971 0.030267064 0.13206644
0000d0 cd 29 a4 3d cd 72 51 3d 6a 53 34 3d 36 21 85 3d
       0.08015785 0.051134873 0.044024862 0.06500475
0000e0 5d 86 72 3e 87 d0 3f 3e dd 5f 75 3e 91 b5 52 3d
       0.23684068 0.1873189 0.2396235 0.051442686
0000f0 db ad c7 bd 05 c0 3a 3d da 7c 89 3e 03 c8 b5 bd
       -0.09749957 0.04559328 0.26853067 -0.0887604
000100 3d 28 12 3e 66 86 2c 3d a1 c6 a9 3c 1c 10 c6 bc
       0.14273162 0.04212036 0.020724596 -0.024177603
000110 32 7b 08 3c 1c e8 51 3d e3 31 2b 3e fb 36 46 3d
       0.008330153 0.051246747 0.16718249 0.048392277
000120 58 bc d1 bc e9 f8 5a 3e 3b 49 37 3e 70 04 67 bd
       -0.025602505 0.21384014 0.17899029 -0.056400716
000130 04 54 90 bd 21 39 4a 3e 0f ec 8b 3d 93 1d f5 bd
       -0.07047275 0.19748355 0.06832134 -0.119685315
000140 d1 ba a2 bd 09 e8 03 bd 72 93 cc bc 91 f7 9d 3b
       -0.07945789 -0.032203708 -0.024972651 0.004820772
000150 69 e1 4d 3e 80 5d f3 bc e9 2f 1e 3d 85 a6 bc 3d
       0.20105518 -0.02970767 0.03861991 0.092114486
000160 05 06 07 3d 0f bf 88 3b 7d 22 2f bd 54 f7 0d 3a
       0.032964725 0.0041731666 -0.0427575 0.0005415578
000170 a3 72 f1 3e a3 09 70 3e 0b f4 37 3c 56 31 2d 3e
       0.47157773 0.23441176 0.011227618 0.16913351
000180 6a bc 60 bd 05 00 7b bd 79 92 7e 3d a3 08 7e 3c
       -0.054867186 -0.061279316 0.062151406 0.015504989
000190 ff a1 f9 3d 33 16 a4 3c f4 5a 28 bd 47 b2 32 3e
       0.121891014 0.020030117 -0.041102365 0.1745082
0001a0 33 8a a0 bd cf 57 4b 3e 73 f5 a9 bd 4b 75 1d 3d
       -0.078388594 0.19857715 -0.08298769 0.038441937
0001b0 69 f8 8f bd 84 2b 8d 3d f0 79 67 3e bb 49 34 bc
       -0.07029802 0.068930656 0.22605109 -0.011003907
0001c0 1e 8b 83 3c fb 06 25 3e 04 fe b3 3d dc e4 65 3d
       0.016057547 0.16115944 0.08788684 0.05612646
0001d0 92 bf d5 3c 90 67 d7 3c 71 c3 56 3e fa cb c3 bc
       0.026092324 0.0262945 0.20972992 -0.023900975
0001e0 7a 22 0a 3e be 0d 37 3e 00 2d 95 b9 27 05 62 3e
       0.13489714 0.17876336 -0.00028453022 0.22072278
0001f0 d4 37 17 3d 55 8e 5d 3d 40 66 85 3e 86 b7 a2 bd
       0.036918476 0.054090817 0.26054573 -0.079451606

fc3.weight f4 [2, 128]
000000 c2 7d 6d bd 12 2f 44 3a 1d 25 8b 3f 3d ba 63 3f
       -0.05798126 0.00074838207 1.0870701 0.8895605
000010 01 db 96 3d a3 0d 8d 3d 20 1e a8 3f cc a6 33 3d
       0.073659904 0.068873666 1.3134193 0.04386024
000020 60 bf 80 3f da 3f 2e bd e8 df 13 bd 17 4b a0 3e
       1.0058403 -0.042541362 -0.036102206 0.3130729
000030 26 53 3f bd 13 78 8e 3f 3d ff 71 3f dc 88 92 bd
       -0.046710156 1.1130394 0.9453009 -0.0715501
000040 f4 3f b8 3c de 36 92 3f 00 9b 50 bd 96 73 8b 3f
       0.022491433 1.1422994 -0.05092907 1.0894649
000050 44 dd 85 bc b6 dc 9c bd 55 6d e7 3c 38 c0 56 3c
       -0.01634086 -0.07659285 0.028250376 0.013107352
000060 4a 5f 73 bd 8b 5b 5f 3f 90 db 7f bd 9c 0c 38 bc
       -0.059417047 0.8724906 -0.06246525 -0.011233475
000070 09 f6 48 bc 8d 42 da be d9 b9 51 3f c9 d8 22 3d
       -0.012265691 -0.426289 0.81924206 0.039757524
000080 07 b3 2a bd ae f8 8d 3c 93 f6 95 3f 4a 92 80 bd
       -0.04167464 0.017330494 1.1715873 -0.062779024
000090 6c ce 29 3d c3 99 45 3f 60 0d 59 bd 20 76 6b bd
       0.041456625 0.77187747 -0.05299127 -0.0574857
0000a0 f8 d6 8d 3d d4 d4 17 3e 32 4b 92 3f c3 c1 86 3f
       0.06925768 0.14827281 1.1429198 1.0527881
0000b0 98 d7 19 3a 80 61 3a 3f f3 b1 3d bd d6 4b b2 bc
       0.0005868613 0.72805023 -0.046312284 -0.021764677
0000c0 7d ee 31 bd 68 ee d2 bf 97 97 6a bd bd 54 45 3f
       -0.04344033 -1.6479006 -0.057273474 0.77082425
0000d0 8e 95 00 bd 5e a6 40 bd e0 5f 12 3f 89 24 96 bc
       -0.031392626 -0.04703366 0.57177544 -0.018327968
0000e0 19 95 37 3f 2b 55 5f 3f 3f 32 38 3f 56 51 6c bd
       0.7171188 0.8723933 0.7195167 -0.057694755
0000f0 ba 03 43 be 44 61 a7 bc 12 04 ab be ce f5 19 3d
       -0.1904439 -0.020432122 -0.33401543 0.037587933
000100 cf 68 44 3f 9d f4 84 3d b1 22 77 bd ba b8 36 bd
       0.76722425 0.06491969 -0.06033582 -0.044609763
000110 3f 28 70 3d a5 20 04 3d 92 40 90 3f 40 9d 4f 3f
       0.05863213 0.032257695 1.1269705 0.8109932
000120 76 fa ac bd 27 d0 78 3f 2a 45 2e 3f c6 9f dd 3a
       -0.08446209 0.97192615 0.68074286 0.0016908578
000130 f2 2b 73 bd 54 49 86 3f ef 2d 00 3c 02 90 5f bf
       -0.05936808 1.0491128 0.007823451 -0.87329113
000140 40 4a e2 3d c8 46 a5 3c b6 9f a3 3d 2e 0a c1 bc
       0.11049318 0.020175353 0.07989447 -0.023564424
000150 c3 44 80 3f f0 8c 9b bc cc 61 39 bd c2 cf 81 3f
       1.0020984 -0.018988103 -0.045259282 1.0141528
000160 c7 d1 9b bd ca ab 0e 3d 2a 6d fd bc 6d b0 70 3d
       -0.07608371 0.0348318 -0.030935843 0.058762003
000170 49 aa f1 bf 27 04 47 3f a8 67 c1 bf b6 3b 6a 3f
       -1.8880092 0.7774071 -1.5109758 0.9149736
000180 58 72 a7 3d ff d1 3b 3d eb 63 77 3f 8a f2 d4 3c
       0.08176106 0.045854565 0.9663684 0.025994558
000190 35 8b 83 3f 8d 0e b9 bf 0c e8 fb 3c 6d 2a 83 3f
       1.0276858 -1.4457566 0.030750297 1.0247322
0001a0 1c 37 af 3b 0a 6c 52 3f f6 7e bc 3c b7 b1 86 3f
       0.0053471457 0.82196105 0.023009758 1.0522984
0001b0 f0 45 a9 bc 5f 0a 65 bd e4 b3 75 3f 09 f2 c5 bf
       -0.020663232 -0.055918094 0.95977616 -1.5464488
0001c0 14 46 8f 3d 8c 70 6a c0 d8 6f 90 3f cf 97 0e bd
       0.06995788 -3.6631193 1.1284132 -0.034812745
0001d0 6c 16 dc 3c 9e c4 f5 bc 77 70 3d 3d 6c a4 3d 3c
       0.02686616 -0.030000981 0.046249833 0.011574846
0001e0 f8 02 33 3f 45 a0 db bf f0 60 a0 3b 3f f7 00 3e
       0.69926405 -1.7158285 0.0048943684 0.12594317
0001f0 88 ed 1a c0 a2 34 c5 bb b5 c5 96 3f bc 41 7a bd
       -2.4207478 -0.006018237 1.1779085 -0.061097845
000200 93 d2 95 3b 2c e9 51 3a 10 77 2e 3f 79 96 23 3f
       0.0045722215 0.00080074626 0.68150425 0.6390148
000210 eb 57 0f 3d 71 4c 88 bd d5 1a c6 bd 44 6e 63 bd
       0.034995954 -0.06655205 -0.096730866 -0.05552508
000220 b3 86 52 3f 82 3a dc bb 28 d8 b9 bc b2 98 b3 3f
       0.82236785 -0.006720842 -0.02268608 1.4030974
000230 13 04 9c 3c 21 cc 1b 3f e1 8f ee 3e 45 78 b3 bc
       0.019044911 0.6085835 0.46594146 -0.021907935
000240 0a 8b f7 bc ff 2c 24 3f b6 14 c0 bc 3a e5 02 3f
       -0.030217666 0.6413116 -0.023447376 0.5113102
000250 ee f8 98 bd c4 14 9a 3c 09 eb 3f bd 56 eb 78 bd
       -0.074693546 0.01880873 -0.046855006 -0.06077131
000260 7f 7d 2a 3c d9 b2 c6 3e 07 c4 19 bd 96 d8 4b 3d
       0.010405897 0.38808325 -0.037540462 0.0497671
000270 4d 76 46 bb c8 d9 7e bf f7 9d db 3e d5 4b 08 bd
       -0.0030282915 -0.9955106 0.42893955 -0.033275444
000280 e9 79 38 ba 92 a4 4a bc 43 03 12 3f bb b9 88 3c
       -0.0007037209 -0.012368338 0.57036227 0.016690126
000290 14 91 92 bd 3f c3 8e 3e 9c 2b 05 3b 79 e2 d7 3b
       -0.07156578 0.27883336 0.0020320183 0.006588277
0002a0 f2 33 58 bd 5e 09 82 c0 15 2b fd 3e 11 32 28 c0
       -0.052783914 -4.0636435 0.4944693 -2.6280558
0002b0 82 32 3d bd 40 76 d9 3e b1 d1 15 3b fa 32 0f bd
       -0.046190746 0.4247303 0.0022860582 -0.034960724
0002c0 90 0f e8 bc 9b 60 28 c0 f1 e5 a2 bd 8c ad 8a 3f
       -0.028327733 -2.6308963 -0.07954014 1.0834212
0002d0 fe ba 26 3d bf 49 24 3c 4b 30 9e 3f 04 18 6f 3b
       0.040705673 0.010027348 1.2358488 0.003648282
0002e0 ed 54 3f 3f e8 ff 12 3f 3f a4 d3 3e 39 3d a5 3c
       0.7473896 0.5742173 0.41336247 0.020170795
0002f0 f8 15 69 c0 06 14 05 bd 82 50 db 3f 93 bf 8c bd
       -3.6419659 -0.0324898 1.7133944 -0.068724774
000300 8b e5 80 3f 9a b0 06 3d d1 78 85 3d de 9a 73 3d
       1.0070051 0.032883264 0.065171845 0.059473865
000310 16 85 95 bd b3 64 13 bd 57 97 11 3f a8 c2 75 3f
       -0.07300775 -0.035984706 0.5687155 0.96000147
000320 44 27 33 bd 30 a4 c1 3e db 30 8a 3f ba 20 c2 3c
       -0.04373862 0.37820578 1.079616 0.023697246
000330 ba a5 e8 bc 75 5d 09 3f 7d f8 03 bd 2a 2d 54 c0
       -0.028399337 0.5365823 -0.0322194 -3.3152566
000340 11 61 77 bd 8d 90 a5 bc 6b 56 4c bd e2 99 7a bc
       -0.060395304 -0.020210529 -0.049887102 -0.015295478
000350 39 71 28 3f ab 8f a6 3d 89 da 56 bd d3 a8 11 3f
       0.65797764 0.08132871 -0.052454505 0.5689823
000360 9b 0d 87 3c 9a 3a 86 bd b6 a5 57 3d a0 ab 17 bd
       0.01648598 -0.06554146 0.05264827 -0.03702891
000370 90 d2 f1 3e ad 25 3a 3f 6f 24 11 3f a7 f2 29 3f
       0.4723096 0.7271374 0.5669622 0.66385883
000380 8d b3 16 3d 82 05 98 bc 00 e2 c9 3e a1 9f 94 bc
       0.036792327 -0.018557314 0.39430237 -0.018142523
000390 cf 2e 53 3f 66 9d 93 3e a8 59 2f bc c9 40 3e 3f
       0.824933 0.28831023 -0.010702528 0.74317604
0003a0 d0 dc 1e bd 3a 43 ac 3e c2 6e 72 3c 8b b0 07 3f
       -0.038784802 0.3364504 0.0147969145 0.5300376
0003b0 e0 50 32 bc 13 b7 85 bd 37 5a 0e 3f d9 18 05 c0
       -0.01088354 -0.06529059 0.55606407 -2.0796416
0003c0 14 3f 7a bd ff ae 33 3f 76 60 25 3f 72 5c 5f bd
       -0.061095312 0.701889 0.6460031 -0.054531522
0003d0 14 c9 ae 3c 92 56 74 c0 01 65 b6 3f 88 00 6e bd
       0.021336116 -3.8177838 1.4249574 -0.058105975
0003e0 fd 93 d4 3e 86 21 4a 3f 68 86 80 3c f0 6e b0 3f
       0.41519156 0.789574 0.01568909 1.3783855
0003f0 d7 55 fc bf e8 93 29 bc cf d0 81 bf 31 39 a6 3d
       -1.9713696 -0.010350205 -1.0141848 0.08116377

fc3.bias f4 [2]
000000 f6 eb ae 3c dc f7 33 3e
       0.02135275 0.1757502
