cartpole-implementation/best_cartpole_model.pth (torch, 73317 bytes, 6 tensors)

fc1.weight f4 [128, 5]
000000 98 20 4d be fd 56 c0 bd fa e0 4c be 68 60 ef 3e
       -0.20031965 -0.09391592 -0.20007697 0.4675324
000010 e2 e0 b1 be 04 df 6c 3e 83 43 c4 be 88 03 3f bf
       -0.34741884 0.23131949 -0.38332757 -0.74614763
000020 ef 85 bf bd ff 2f 94 3e 48 5c 99 3e 9c d1 9c be
       -0.09351718 0.28942868 0.29953218 -0.3062867
000030 74 aa a5 3e 87 57 b7 be d4 a8 8f bd df 90 88 bb
       0.32356608 -0.35808966 -0.07014623 -0.0041676606
000040 6e 1a 39 be cc 28 0c 3f 7c 50 8a 3e d2 90 74 bd
       -0.18076488 0.5474975 0.2701453 -0.059708424
000050 b9 37 89 be 8e 49 05 3e 8f 5c c2 3e 9d 5f 0e 3e
       -0.26800326 0.1301634 0.37961242 0.13903661
000060 8e 5f 9b be 28 fd d2 bc ce 97 f4 3e 14 55 92 3f
       -0.3034634 -0.02575548 0.47772068 1.1432214
000070 44 38 7d 3e 85 48 17 3f 0e 28 41 be e9 8e b5 3e
       0.24728495 0.5909503 -0.18862936 0.35460594
000080 4a 74 98 3e 1c 8e e4 3d ac 99 6d 3e c0 e1 58 3e
       0.29776222 0.11159918 0.23203152 0.21179867
000090 16 8c 3b 3d f4 cb e9 3d 26 d1 0c 3f 9f 6b 5f be
       0.045787893 0.11415854 0.55006635 -0.21818398
0000a0 25 61 82 be 92 a0 8c 3c 96 11 e6 3e 15 fc 76 3d
       -0.2546474 0.01716641 0.44935292 0.060298998
0000b0 ca 5a 67 3e f9 89 9e be cb 7d 1c 3f 1a 8f a6 3f
       0.22593227 -0.3096464 0.61129445 1.3012421
0000c0 34 75 4b 3e 24 af 1a 3f 2f 35 f8 be e6 d6 8e 3e
       0.19868928 0.60423493 -0.48478076 0.2789833
0000d0 7a 41 53 3d 4f 27 ca 3d 6c 22 13 3e ba b6 94 be
       0.051576115 0.09870779 0.143686 -0.2904566
0000e0 9c 70 8e bc 93 d2 00 3f 6b 3a cf 3e 2c 0f d7 be
       -0.01738768 0.5032131 0.40474257 -0.42003763
0000f0 77 6f e9 bd fe 81 89 bd 9c 95 77 be 31 16 97 3e
       -0.11398213 -0.06714247 -0.24178165 0.29509118
000100 c9 70 8a 3e f3 f1 78 3e 5c eb 63 3e 7b e5 3e bf
       0.27039173 0.24311046 0.22257751 -0.7456891
000110 69 4c 87 be 7a 09 cf be 8f b6 45 3e 7d d5 e4 be
       -0.26425484 -0.40436918 0.19307922 -0.4469413
000120 84 b4 56 be 62 83 2c 3f 2f b8 86 3e 0b 9e 60 3f
       -0.20967299 0.67387974 0.26312396 0.87741154
000130 2d 9c a8 be 87 da 43 bf f5 3d b8 3e 8a 6e 28 bf
       -0.32931653 -0.7650532 0.3598477 -0.6579367
000140 22 8e cc 3e 7c 9e c5 3e dc ab 2c be a1 a1 ea 3e
       0.3995219 0.38597476 -0.16862434 0.45826438
000150 de 30 bb bc 4c 7a 8a be ef a6 fb 3d d3 c1 09 3f
       -0.02285045 -0.2704643 0.122876994 0.5381138
000160 94 fb ce bc e6 3e 26 3f d3 15 eb 3d 72 3e 88 3e
       -0.025266446 0.64939725 0.11478772 0.26610142
000170 fd 7e 4e 3e e5 78 ba bd 74 2a 07 3b ef 21 06 bf
       0.2016563 -0.0910509 0.002062467 -0.5239553
000180 ee 43 ba 3e 92 be 71 be 8c 9b a9 3e de 35 92 3e
       0.3637995 -0.23607853 0.33126485 0.28556722
000190 33 ed 4b ba 11 93 a6 3e 59 bc 86 3f 80 09 07 be
       -0.0007779181 0.32534078 1.0526229 -0.13187218
0001a0 4e 44 3d 3f f3 61 62 3d bd 94 52 3f ae 64 7f 3f
       0.7393235 0.055269193 0.82258207 0.99763
0001b0 58 00 fc bd 45 c2 43 3f f1 f2 f2 be 5a 70 6a be
       -0.12304753 0.76468307 -0.47450975 -0.22894421
0001c0 37 68 98 3f 95 d2 e3 bd 05 0b 26 3f 07 ef 65 3e
       1.1906804 -0.1112415 0.64860564 0.22454463
0001d0 e3 63 7a 3e c6 56 82 3e ac b7 d0 3d 12 9d 8f 3d
       0.24452166 0.25456828 0.10191283 0.07012381
0001e0 11 23 04 3e 56 76 b4 be 23 37 9c 3e a4 f3 bb 3e
       0.12904002 -0.35246533 0.30510816 0.3670932
0001f0 b2 4e 6c 3c 4b 23 8a be bb 9f aa be 40 03 44 3d
       0.014423059 -0.2698005 -0.3332499 0.047854662
000200 ea 37 6b bd c3 21 28 bc a4 ad b6 3e 25 ce 98 3e
       -0.05742637 -0.010261956 0.35679352 0.29844776
000210 a1 f6 d9 be 4c c8 92 bd cc f5 e2 be 73 4f 88 bd
       -0.42570975 -0.0716711 -0.44328153 -0.06655779
000220 cc f9 da 3e 85 28 29 bc 64 0b 8e 3e 93 4c aa bd
       0.42768705 -0.010324602 0.27743065 -0.083153866
000230 e2 30 18 3e 3b 48 f9 bb 49 ff 5a 3d 2c 03 dd 3e
       0.14862397 -0.0076074875 0.053466115 0.43166482
000240 4e 46 ef bd 6d da fb 3e 92 2c 41 bd 5a 1e 88 bf
       -0.116833314 0.49190083 -0.047161646 -1.0634263
000250 54 47 0b 3d 12 be 32 bf af 2a 87 3e 01 37 43 be
       0.03400357 -0.69821274 0.26399752 -0.19063951
000260 4e ac 0c bf a4 83 74 3e ee 6c 2a bf 9a 8f f6 3d
       -0.54950416 0.23878342 -0.66572464 0.120391086
000270 f1 e8 1f be d2 11 40 bf 1c 54 86 be d1 0c 12 bf
       -0.15616204 -0.7502719 -0.26236045 -0.57050806
000280 b0 03 65 3d 58 c5 aa 3e bc 35 88 3e bc f2 c1 be
       0.05591172 0.33353686 0.26603496 -0.37880504
000290 6e d9 ce 3e 39 3c dc 3d ec bf d9 be bc da 9b 3e
       0.4040026 0.10753674 -0.42529237 0.3044032
0002a0 e7 c5 0c 3f 41 1f e2 be 87 c4 1c be ec 93 95 bd
       0.54989475 -0.4416447 -0.15309344 -0.073036045
0002b0 02 0f 1a 3f 76 7e ce 3e 9c 64 0a 3e 1f 3f 6d be
       0.6017915 0.40330857 0.13514942 -0.2316861
0002c0 b0 40 94 3e 1a f4 b7 3e 35 c4 cc 3c e7 80 95 be
       0.28955603 0.35928422 0.024995903 -0.29199907
0002d0 6c 51 8b be 0e f9 bf be 27 29 e3 3e aa ce f6 3e
       -0.27210557 -0.374947 0.44367334 0.48204547
0002e0 2b 4f f4 bd 80 86 b9 bb b4 e5 1e 3e e4 07 b7 be
       -0.119291626 -0.0056617856 0.15517312 -0.35748208
0002f0 68 fe 09 be ea f7 cb 3e 2d 35 b4 3e 70 33 ed 3d
       -0.13475955 0.3983758 0.3519682 0.115820765
000300 6c 99 90 be 60 8d f5 3e 4e 44 31 3c 23 e8 ef bc
       -0.28242052 0.47959423 0.010819508 -0.029285496
000310 7c 80 28 be e5 fc 8b 3e 39 95 50 3d 4a 85 ee be
       -0.16455263 0.2734138 0.05092356 -0.46586066
000320 26 e6 6b be bc c8 34 be 3b ce c2 bd 9d 0e 06 3e
       -0.23037013 -0.17654699 -0.095119916 0.13091512
000330 e0 6d 7c be a9 d7 78 3e 18 50 99 3e 8a fe 1a 3f
       -0.24651289 0.24301018 0.2994392 0.60544646
000340 9a 89 cd bc 8f cb da bd d4 e7 2c 3e 8a 8d d0 3e
       -0.025090028 -0.10683357 0.1688531 0.40732986
000350 6f fa 07 bf a4 1c e2 be cd ca 97 be 8c 5b 0a bf
       -0.53116506 -0.44162476 -0.29646912 -0.5404594
000360 60 b3 54 ba f3 34 e2 3e 6e a4 03 3f e8 98 75 3d
       -0.0008113887 0.44181022 0.51422775 0.059960276
000370 bf f9 06 3e f2 b6 16 3e 59 f0 66 3e 5f 2c 77 3c
       0.13181208 0.14718226 0.22552623 0.0150862625
000380 e2 91 b0 be 80 39 cd bc e4 54 cc bd 54 7a 28 bd
       -0.344863 -0.025051832 -0.09977129 -0.041132286
000390 60 30 04 3f 45 86 39 bc ff 4a 6f 3e b9 e0 a3 be
       0.51636314 -0.011323516 0.23368452 -0.32007387
0003a0 83 cc 8b 3e 9c 17 ed 3e 47 cb b5 3e 45 22 0c 3e
       0.27304468 0.46307075 0.3550665 0.13684948
0003b0 f7 f9 e3 3e e9 03 2d bf 8e b2 e2 be 99 17 f6 be
       0.44526646 -0.6758409 -0.4427685 -0.4806488
0003c0 89 f0 ce bd bc 71 8f 3e d0 7c 1a 3e c9 f5 bc 3d
       -0.10104472 0.2801646 0.15086675 0.09226567
0003d0 5f a8 aa bd 13 34 2e 3e 4d fe 4d be e7 71 ad be
       -0.083328955 0.17012052 -0.2011654 -0.33875963
0003e0 15 34 0c be 4a 35 a8 3c 86 6a 09 be 3e 7f 09 3e
       -0.13691743 0.020533223 -0.13419542 0.13427445
0003f0 4e 03 f1 3e 7b 6f c8 3e bb 93 90 be 55 0e 65 3f
       0.47072834 0.39147553 -0.2823771 0.89474994

fc1.bias f4 [128]
000000 23 53 10 3f ab b0 22 3e 48 c1 46 3d 93 00 f3 3e
       0.56376857 0.15887706 0.04852417 0.47461376
000010 42 ff f2 3e 3c 5c f4 bd ab 48 c2 3e a9 2d c6 3e
       0.4746037 -0.11931655 0.37946066 0.3870671
000020 0a 4f f8 3e 5b 26 0c be 58 3b 00 3f eb 06 14 3f
       0.48497802 -0.13686506 0.5009055 0.57823056
000030 40 66 87 3e 29 50 c5 3d b7 6a 3b 3e ee d2 4d be
       0.26445198 0.0963443 0.18302427 -0.20099995
000040 77 13 81 be 4d 07 80 be 62 95 16 3f 05 48 c8 3e
       -0.25210163 -0.2500557 0.5882169 0.39117447
000050 94 66 8c bd 5f 7e bf 3d e3 d5 15 be 84 ee 95 3e
       -0.06855503 0.09350275 -0.14632373 0.29283535
000060 cf 29 9d 3e 4e 98 10 3f 3e 04 83 be 9c 43 00 3f
       0.3069596 0.564824 -0.25589174 0.50103164
000070 e0 5e 17 3f c6 75 a6 be 71 32 ef bc eb 46 d0 3b
       0.5912914 -0.3251173 -0.029198857 0.0063561103
000080 95 1e 97 be cd 7d 77 3e 37 18 12 3f f4 21 25 3f
       -0.2951552 0.24169083 0.570682 0.64504933
000090 e3 bf 02 3e 43 55 6c be b0 f8 34 3e 91 2f ec 3e
       0.12768511 -0.230794 0.17672992 0.4613004
0000a0 ee f7 ff 3e de 68 16 3f 38 1a d4 3d e0 f4 65 3e
       0.49993843 0.58753765 0.10356563 0.22456694
0000b0 65 47 19 3f ee 40 1e 3f f8 73 cd 3e 36 ba ab 3d
       0.59874564 0.61817825 0.4012754 0.08385126
0000c0 3c 21 e9 be a4 6e 12 be ac 05 0a 3f 0e 65 ee be
       -0.45533168 -0.14300019 0.53914905 -0.46561474
0000d0 d7 20 4e be 36 9b cb 3e 3d 4a d5 bd 77 93 07 3f
       -0.20129715 0.39766854 -0.104145505 0.5295939
0000e0 36 1a 21 be 70 06 86 3e ea b8 f2 3d c6 82 11 3f
       -0.15732655 0.26176786 0.11851676 0.5684017
0000f0 0b 2a 46 3e 40 1a 1d be 54 06 92 be 21 61 14 3f
       0.19351976 -0.15342045 -0.28520453 0.57960707
000100 9d cd c4 be d8 6d d9 be d6 72 02 3f f6 67 ab 3e
       -0.3843812 -0.42466617 0.50956476 0.33477753
000110 2c 54 aa be 57 25 af 3e 78 29 1e be 6f 45 1f 3f
       -0.33267343 0.34208176 -0.15445507 0.6221532
000120 c5 38 89 3d af 5c 11 3f f7 3a 0b 3e f6 21 8d be
       0.06700281 0.5678205 0.13596712 -0.27564973
000130 32 e1 c5 3e 3a 3f 6d 3c 84 9b ca be 50 fb d4 3c
       0.38648373 0.014480406 -0.39571774 0.025998741
000140 1c c0 97 be d5 5f 96 bd 7e ed 84 3e 5c 6f 19 3f
       -0.29638755 -0.07342497 0.25962442 0.59935546
000150 e5 d8 90 3e f2 66 1e 3f 36 c6 ef 3e 5d 82 00 3f
       0.28290477 0.6187583 0.4683091 0.5019892
000160 2c 87 cc 3e 3b 2f a2 3e a5 60 81 3e bc d9 bf 3e
       0.39946878 0.3167666 0.25269046 0.37470806
000170 0f a8 7d 3e 76 b6 2e be bf f3 eb 3e 72 1d c9 bd
       0.2477114 -0.17061791 0.460844 -0.098200694
000180 16 36 1e 3f 54 6d 1c 3f c7 d2 ae be a1 22 f3 3e
       0.6180128 0.6110432 -0.34145185 0.47487357
000190 f3 55 7c bd 70 e6 40 3e 7d 3c de be 61 bc a0 3e
       -0.061605405 0.18837905 -0.43405524 0.31393722
0001a0 ba d4 f3 bd a6 05 91 be ae 30 a2 3e a3 b2 d0 3e
       -0.11905809 -0.28324622 0.31677765 0.4076129
0001b0 99 0d 34 be 64 58 83 3e 0f 7b d8 3e 86 f0 88 3d
       -0.17583312 0.25653374 0.42281386 0.06686501
0001c0 d2 03 b2 3e a8 11 68 3e 05 e0 e7 3d f4 a9 1a 3f
       0.3476854 0.22662985 0.11322025 0.6041558
0001d0 bf a6 11 bb a1 28 87 3e 05 7a 4a 3e 94 ef 66 be
       -0.0022224633 0.26398185 0.1977311 -0.2255233
0001e0 6e 9c f4 3e 97 cd ac 3e 41 b7 54 be 60 ce f1 bd
       0.47775596 0.33750603 -0.20773031 -0.11806941
0001f0 ce 33 3b 3e 6c fe d9 be 95 e7 16 be 2d 70 cf be
       0.1828148 -0.4257692 -0.14736779 -0.4051527

fc2.weight f4 [128, 128]
000000 a9 0e 84 3d e0 06 ff 3b 4c df 9c bd 3a 3b 11 3c
       0.06448109 0.007782802 -0.07659778 0.008864218
000010 46 49 99 3c 80 24 27 bc 96 65 33 3d 9e 8d 2a 3d
       0.018711697 -0.010201573 0.04379805 0.041638963
000020 d3 c2 8a bd 18 5a 98 bd 16 a1 3c bc 34 d0 0f bd
       -0.06775441 -0.07439059 -0.011513015 -0.035110667
000030 73 9c 03 bd e7 ac ab bd 4b 2b 58 3d ea 73 7d 3d
       -0.032131623 -0.08382588 0.052775662 0.061878122
000040 f1 17 42 3a e1 52 a7 3d fc 9c cb 3a 31 59 97 3d
       0.000740408 0.08170105 0.0015534456 0.07390059
000050 a8 c8 3f bd 80 41 30 bb 78 7b e9 3c db fb 65 3d
       -0.04682222 -0.002689451 0.028501257 0.05614839
000060 82 6b b7 bd fb a8 90 3d 37 9b 81 bd 8c 0e c0 bc
       -0.08956052 0.070634805 -0.06328433 -0.023444436
000070 0b 85 27 3d c2 3f a1 bd 98 74 71 bd ea a8 6f 3d
       0.040898364 -0.07873489 -0.058949083 0.0585107
000080 38 85 8a bd 1f 2d 58 3d 4f 56 9b bd cb 45 bc bd
       -0.06763691 0.052777406 -0.075848214 -0.091929995
000090 48 ca 72 bd ff 77 96 3d 42 29 06 3d 9b 06 fa 3a
       -0.05927494 0.07347106 0.03275419 0.0019075455
0000a0 84 78 8c 3d 88 1e 06 bd 73 7a 8f 3d d2 54 d1 3c
       0.06858924 -0.03274396 0.07005777 0.02555314
0000b0 ee 97 6a 3d 19 7f 66 3d b7 dc a9 bc 06 64 8d 3c
       0.057273798 0.056273554 -0.020735128 0.017259609
0000c0 60 9b ba 3c 39 96 23 bd 2b f0 c8 bc 9b 89 6c bd
       0.022779167 -0.039938185 -0.024528584 -0.05774842
0000d0 94 7c 7d bd 44 77 6d bd c2 fd cd bd 87 de b3 bd
       -0.061886385 -0.05797507 -0.10058166 -0.08782678
0000e0 1f 1d 16 bd b2 ea 2e bd b3 4d d6 3c 3e 58 5f bd
       -0.036648866 -0.04270429 0.026160097 -0.054527514
0000f0 be 88 a5 bd 18 df 7e bd f4 ad d5 bc b7 db a3 3c
       -0.08082722 -0.062224478 -0.026083924 0.02000223
000100 6d d4 4b bd 94 e1 b2 bc c2 3c 7b bc cc 3c 12 bd
       -0.049763132 -0.02183608 -0.01533431 -0.03570251
000110 d5 2b 00 3d ce 66 bb bd f4 40 c5 bd 4a b0 8e 3d
       0.0312918 -0.09150468 -0.096315295 0.06967218
000120 d2 f5 7e bd 4f f6 92 3b eb c0 ec 3c 09 f8 48 bd
       -0.06224615 0.0044849287 0.028900584 -0.04906467
000130 65 eb 99 bd 0e 46 4b 3d 00 f6 24 bb 28 bf 0e 3d
       -0.07515601 0.049627356 -0.0025171041 0.03485027
000140 ac b3 a4 bd b8 f8 6b 3c 70 0f c4 bc 75 84 88 bb
       -0.08042082 0.014402561 -0.023933142 -0.0041661807
000150 fa 3a 6d bb 7a 21 95 3d 53 95 65 3d e2 3c 12 bd
       -0.0036198483 0.07281776 0.05605061 -0.035702594
000160 66 22 3a 3d 78 93 2f bd 97 93 3f 3d 55 ea c2 bd
       0.04544296 -0.042865247 0.046771612 -0.095173515
000170 6d f5 e6 bc 98 69 31 bc f1 7d ce 3b c8 be 6f 3c
       -0.0281932 -0.010828398 0.0063016345 0.014632888
000180 48 8e c7 bd 95 2e df 3c 29 0d ce bd c0 96 07 3d
       -0.09743935 0.027243892 -0.10061104 0.03310275
000190 99 8b 65 3d 7f eb 85 bd d4 6b e8 3c 7a 4f 6a bd
       0.056041334 -0.06539058 0.028371729 -0.0572047
0001a0 95 28 81 3d ee 9e 2a 3d 77 d8 5a bd 7d 89 1d bd
       0.063065685 0.041655473 -0.053429093 -0.038461197
0001b0 48 86 9d bd 54 82 6a 3d 41 0e 8c 3d 76 2b 76 3d
       -0.07691628 0.057253197 0.06838656 0.06010004
0001c0 ad cb 99 bd d9 6f 30 bd 19 a8 b6 bd a0 b3 66 bd
       -0.07509551 -0.043075416 -0.08918781 -0.056323647
0001d0 f4 50 e6 3c fa a3 ea bb 10 26 cc bb e4 38 99 bc
       0.028114773 -0.007160661 -0.0062301233 -0.018703885
0001e0 28 04 9a bd 8c d4 2e 3d fe 12 86 bd 6e bf 7e bd
       -0.07520324 0.04268317 -0.06546591 -0.06219428
0001f0 c7 58 25 3a b5 91 72 bd 04 03 83 bc 4b df 06 bd
       0.00063074793 -0.05922099 -0.015992649 -0.032927793
000200 a2 1b 8f 3d e6 54 60 3d 2e 38 20 3d 99 7f 30 3d
       0.069876924 0.054768465 0.039116077 0.043090437
000210 d4 df 4b bd 57 84 82 3d 85 1d df bb c1 ff 2b bd
       -0.049774006 0.06372898 -0.006808939 -0.041991953
000220 cd 0b 1f bc 08 72 15 3d 46 67 1f 3d cb 3e 8a 3c
       -0.009707403 0.0364857 0.03891685 0.016875645
000230 f0 6a f7 bc 0f 60 ec 3c 1c 08 e9 3b d9 9e 6e bc
       -0.030202359 0.028854398 0.0071115624 -0.014564239
000240 55 11 49 3d 78 56 04 3c 4b 61 8f 3d 84 2d 13 bc
       0.049088795 0.008077256 0.07000979 -0.00898302
000250 5b fc 7b bd ba c9 86 bd 9e 79 22 3d 0a c8 a5 3b
       -0.06151996 -0.06581445 0.039666764 0.005059247
000260 7f 29 2a 3d 2c 58 01 3d ea 72 3e bd 58 af 53 bd
       0.04154348 0.031578228 -0.04649631 -0.051680893
000270 b1 6f a2 3d 8a 5d 5f 3a 93 83 8c bd e0 76 18 bc
       0.0793146 0.00085207133 -0.06861033 -0.009305686
000280 c3 72 8b bd 9b b7 88 bb c1 b5 f0 bc e1 9c a9 bc
       -0.068089984 -0.004172278 -0.029383542 -0.020704689
000290 ea 4e 1a 3d 6f 5b a5 bd 88 ab f7 bb 99 40 33 3c
       0.037672915 -0.0807408 -0.00755829 0.010940694
0002a0 22 50 36 3d b4 c3 71 3d e5 61 b1 bb d7 12 bd bd
       0.044510014 0.059024528 -0.0054132813 -0.09232109
0002b0 79 04 b6 3c 4d 55 35 3d 8b 89 b3 bd de 5b ae 3c
       0.02221893 0.044270802 -0.087664686 0.02128404
0002c0 e6 02 aa bd e0 0f 2b bd 5d f3 a1 bc 92 25 a3 bd
       -0.08301334 -0.041763186 -0.019769365 -0.0796615
0002d0 62 61 5f bd 87 2a 78 3d 83 ac 80 3c a2 3f 8b bb
       -0.05453623 0.060587432 0.01570726 -0.004249529
0002e0 c5 80 8a bd dd 0c 31 3d 5e cb 2d 3d e7 0f 8d bd
       -0.06762842 0.043225158 0.042430274 -0.06887799
0002f0 73 51 8e bd c9 c7 9a 3d bb 51 0e bd 0c ca af bd
       -0.06949129 0.07557637 -0.034745913 -0.08583459
000300 b8 c8 2a bc 78 59 87 bc 75 24 a2 bd 0a b4 4f 3d
       -0.010423832 -0.016522154 -0.0791711 0.050708808
000310 66 e4 3a 3d 6c bb 5c bd 6f 22 cf bc d1 b4 05 3d
       0.045627974 -0.053889677 -0.025284974 0.032643143
000320 83 87 a3 3d 65 5d e9 bc 49 d5 00 3b 87 46 16 bd
       0.07984831 -0.028486917 0.0019658378 -0.036688354
000330 e8 9b ab bd 4a 70 5b 3d b0 ca dc 3c b0 a8 99 3b
       -0.08379346 0.053573884 0.026952118 0.0046892986
000340 62 71 7b 3d e0 db 9e bd 58 36 b5 bc 0e 35 89 3d
       0.061387427 -0.077567816 -0.02212064 0.066995725
000350 52 5a 6a bd 4b 16 c4 3c 28 33 0a bd e5 9d 1e bd
       -0.057215042 0.023936411 -0.033740193 -0.0387248
000360 2c e7 e4 3c f4 f4 a9 bd 52 c1 46 3d 80 25 aa 3b
       0.027942263 -0.08298674 0.04852421 0.0051924586
000370 58 09 9f bd 90 66 88 3c 39 35 b9 bc 08 43 7b 3c
       -0.07765454 0.016650468 -0.022608386 0.015335806
000380 64 46 52 bd c4 f0 37 3c b3 17 23 3d c6 08 48 3d
       -0.05133666 0.011226837 0.039817523 0.048836492
000390 61 bc 80 3d c0 c4 66 bd bc 6c a2 3c c9 2a 19 3d
       0.062859304 -0.05633998 0.01982724 0.03739432
0003a0 e0 d7 6e bd 56 43 08 3d ab f7 0e bc bf f1 9c bc
       -0.058311343 0.03326734 -0.008726041 -0.019158242
0003b0 42 81 9b bd a3 47 a3 ba 12 25 5b 3d 80 22 f8 3a
       -0.07593013 -0.0012457262 0.05350215 0.001893118
0003c0 d0 b0 43 bd 06 5a 67 3d 43 30 9a bd 2a bf a0 3c
       -0.047776043 0.056482337 -0.075287364 0.019622404
0003d0 07 2e b0 bd 26 bf 72 bd c0 22 1e 3b d4 53 84 bc
       -0.08602529 -0.059264325 0.00241296 -0.016153254
0003e0 b0 23 27 3d 76 e5 84 3c f1 f6 14 bd 7c dc a8 bc
       0.04080552 0.016222697 -0.036368314 -0.020612948
0003f0 c7 ed 9c bd d5 f3 80 bd 1c 52 a2 3d 90 6b d9 bb
       -0.0766254 -0.06296507 0.07925817 -0.006635137

fc2.bias f4 [128]
000000 44 f2 16 bd 53 53 a5 bd cd 4c 23 3e 68 9f 35 3e
       -0.036852136 -0.080725335 0.15947266 0.1773659
000010 9f 7c cf 3d bc bc 2c bd 32 1b 4c bd de 9a 9a 3d
       0.101311915 -0.04217218 -0.049830623 0.0754907
000020 94 99 dd 3c 82 fd 43 3d 41 f6 a2 3d 5e 86 b3 3c
       0.02705077 0.047849186 0.079571255 0.021914657
000030 52 0c 18 3e 6a 07 07 3e 33 2f 43 3e e3 34 06 bd
       0.1484845 0.13186422 0.19060974 -0.03276528
000040 28 ac 9f bd 2a cf 08 3e 10 38 d7 3c 36 b5 4c 3e
       -0.07796508 0.13360277 0.02627185 0.19991001
000050 b5 f4 47 bd 8b f6 ae 3d 10 00 a8 3d 7b f8 84 bd
       -0.048817355 0.08543118 0.08203137 -0.064927064
000060 dd 77 23 bd f3 38 79 3e 6d cb 45 3d b1 42 eb bc
       -0.039909232 0.2433813 0.048289705 -0.028718324
000070 af e2 b6 bd 5f 3f 7f bd e3 7d f3 3d 1b ed 6a 3d
       -0.08929955 -0.062316295 0.11889245 0.057355028
000080 77 c1 6f bd 3e 4c 0c 3e 0d 2b dc 3d ff c0 36 3e
       -0.05853411 0.13700959 0.10750399 0.1784706
000090 70 1e 79 bd 3a 78 81 3e 7d f2 34 3c f9 f7 85 3d
       -0.060820043 0.25287038 0.011044142 0.06541438
0000a0 42 34 03 3d da 2b 9f bd 5c 95 52 3e a8 f2 cd bc
       0.03203226 -0.07772036 0.20564789 -0.025140122
0000b0 70 52 88 bd 31 c2 71 3e c3 75 ae bd 37 da 5a 3c
       -0.06656349 0.23609234 -0.08518555 0.013357691
0000c0 d6 03 a7 bd 0d 89 90 bd d6 6c f9 3c 52 7b 04 3e
       -0.081550285 -0.0705739 0.030447405 0.12937668
0000d0 cd 29 a4 3d 57 2d 89 3d 22 bf f1 3c 63 bc 84 3d
       0.08015785 0.06698101 0.029510085 0.064812444
0000e0 b8 ff 5a 3e f7 ec 27 3e 36 d6 5a 3e 01 10 12 3e
       0.21386611 0.16398989 0.21370777 0.14263918
0000f0 c7 75 9d bd 97 8e 3b 3d 14 a5 14 3e 97 08 b5 bd
       -0.0768848 0.04579028 0.14516097 -0.08839529
000100 10 6e 0a 3e 66 86 2c 3d e8 44 81 3b 1c 10 c6 bc
       0.13518548 0.04212036 0.003944982 -0.024177603
000110 9c 61 0b 3c c7 b8 51 3d 5d 85 23 3e 24 d8 45 3d
       0.008507159 0.051201608 0.15968843 0.04830183
000120 58 bc d1 bc 80 3e 66 3e f0 65 2b 3e 80 f1 df 3d
       -0.025602505 0.2248478 0.16738105 0.10934734
000130 04 54 90 bd d3 03 37 3e 68 f5 8b 3d 5a 8d 60 bd
       -0.07047275 0.17872553 0.06833917 -0.054822303
000140 63 48 95 bd 2b 45 44 3d cb e0 b8 bc 6c 89 91 3b
       -0.07289197 0.047917526 -0.022568127 0.004441431
000150 74 66 2e 3e 80 5d f3 bc de 4b 1d 3d 90 a8 91 3d
       0.1703127 -0.02970767 0.03840243 0.07112229
000160 fa 28 47 3d cc 96 96 3b a1 77 23 bd 13 6c a7 3a
       0.048623063 0.004595613 -0.03990901 0.0012773297
000170 e3 41 0c 3e 07 24 46 3e ec fe 69 3d 85 ca 08 3e
       0.13697009 0.19349681 0.057127878 0.13358505
000180 a4 63 70 bd f8 06 6f bd 11 4b 8b 3d f0 cb 73 3c
       -0.058688775 -0.058356255 0.06801427 0.014880165
000190 32 c7 c9 3d 4c 39 c7 bb f4 5a 28 bd d1 55 13 3e
       0.098524466 -0.0060798284 -0.041102365 0.14388205
0001a0 4a 20 a0 bd 89 d1 48 3e f0 95 bc 3d d3 5b 21 3d
       -0.07818659 0.19611181 0.09208286 0.03939421
0001b0 69 f8 8f bd 55 1c 8d 3d 73 7b 5b 3e 52 cc 2c 3d
       -0.07029802 0.068901695 0.21433811 0.042187043
0001c0 81 10 8b 3c f4 33 b8 3d f2 c1 84 3d dd 40 66 3d
       0.016975643 0.08994284 0.06482305 0.056214202
0001d0 06 72 09 3d c2 09 53 3d c2 a7 0a 3e d7 71 a3 bb
       0.033556007 0.051522978 0.13540557 -0.004987936
0001e0 48 c9 d2 3d 74 e0 19 bd 00 2d 95 b9 90 af 2d 3e
       0.102922976 -0.03756757 -0.00028453022 0.16961503
0001f0 1a 05 b8 b9 2c b2 5c 3d b6 08 f4 bb df 59 a3 bd
       -0.00035099016 0.053880855 -0.0074473275 -0.07976126

fc3.weight f4 [2, 128]
000000 f8 08 6b bd b1 d6 07 3a 36 50 c0 3e fa 66 89 3e
       -0.0573816 0.0005181833 0.37561196 0.26836377
000010 68 ce d2 3e d9 5c 8d 3d 68 08 8d 3d 5d f4 32 3d
       0.411731 0.06902475 0.06886369 0.043690074
000020 91 e7 ab 3e da 3f 2e bd d0 6f e8 3c da cd 7b 3e
       0.3357511 -0.042541362 0.028373629 0.24590245
000030 0c fe 70 3e b9 da ba 3e d3 b8 a6 3e 59 0c 88 bd
       0.23534411 0.36494997 0.32562885 -0.0664298
000040 f4 3f b8 3c 60 9f ca 3e 92 84 50 bd 3a 32 b0 3e
       0.022491433 0.39574718 -0.05090768 0.3441332
000050 44 dd 85 bc b6 dc 9c bd 85 38 e6 3c 46 46 c8 3b
       -0.01634086 -0.07659285 0.028103122 0.006111893
000060 15 9c 73 bd ca 21 cf 3e eb ad a1 be 87 e4 9f bd
       -0.059475023 0.40455467 -0.31578 -0.0780726
000070 cd 39 48 bc d9 c6 c8 be b4 db a4 3e 60 0c 44 bf
       -0.012220812 -0.3921421 0.3219887 -0.7658138
000080 35 92 28 bd b4 ab 09 bf 0b 1f cd 3e 22 26 8e 3e
       -0.04115506 -0.53777623 0.40062746 0.27763468
000090 5f fc 06 3d cd 33 a5 3e 01 35 57 bd 20 76 6b bd
       0.032955524 0.32266083 -0.052540783 -0.0574857
0000a0 aa 2e 8e 3d f4 72 77 bb 8f b8 c5 3e 48 cd 15 3d
       0.06942494 -0.0037757726 0.3861737 0.036572725
0000b0 af 3a 01 bb 43 f2 8f 3e 50 b7 3c bd e8 6f 0b bc
       -0.0019718816 0.2811452 -0.046073258 -0.008510567
0000c0 3f d1 38 bd 77 cf 95 bd f1 77 6c bd af 31 a5 3e
       -0.045121428 -0.073149614 -0.057731573 0.32264468
0000d0 8e 95 00 bd 5e a6 40 bd c2 3c 97 3e c3 52 94 bc
       -0.031392626 -0.04703366 0.29538542 -0.01810587
0000e0 31 8f 68 3e d7 47 90 3e 2e 76 8e 3e 57 92 75 3e
       0.22710873 0.2817981 0.2782454 0.23981605
0000f0 a0 b1 99 bc 84 13 a8 bc 8d 6a 54 3e ce f5 19 3d
       -0.018761456 -0.020517118 0.20743771 0.037587933
000100 9e 3a 94 3e 9d f4 84 3d 6b b1 72 be ba b8 36 bd
       0.2895097 0.06491969 -0.23700492 -0.044609763
000110 d5 50 6f 3d fd 60 03 3d b9 cb c0 3e 85 a9 97 3e
       0.058426697 0.032074917 0.37655428 0.2962152
000120 76 fa ac bd 41 7a a3 3e 47 6f 97 3e a1 20 9e 3e
       -0.08446209 0.3192921 0.29577085 0.3088427
000130 f2 2b 73 bd cc 9c ac 3e e4 a8 0b 3c 60 58 c3 3c
       -0.05936808 0.33713377 0.008524153 0.023845851
000140 8f 54 a5 3d 86 11 75 3d cf 58 a9 3d 0d 01 b9 bc
       0.08072769 0.059831165 0.08268892 -0.022583509
000150 7f e9 a3 3e f0 8c 9b bc e4 61 37 bd 6e c9 ba 3e
       0.3201408 -0.018988103 -0.04477109 0.36481804
000160 c7 d1 9b bd 7a a1 0d 3d 7f 13 3c bd 9e 3b 73 3d
       -0.07608371 0.034577824 -0.04591703 0.059383027
000170 db be 71 3e af 4a 83 3e 64 4a 7e 3e ee c3 95 3e
       0.23607962 0.25642917 0.24833065 0.29251045
000180 4a 07 a3 3d 87 8b 88 3d c3 11 bf 3e 98 59 d5 3c
       0.07960375 0.06667238 0.3731824 0.026043698
000190 66 c0 b6 3e 0f eb ce be 0c e8 fb 3c 25 23 b0 3e
       0.35693663 -0.4041371 0.030750297 0.34401813
0001a0 3f 30 ae 3b d5 9d b4 3e 9a 2f b5 3e 75 be b4 3e
       0.00531581 0.35276666 0.3538788 0.35301557
0001b0 f0 45 a9 bc 67 a8 64 bd 08 e2 9b 3e 08 cf 69 bd
       -0.020663232 -0.055824663 0.30445886 -0.057082206
0001c0 73 67 8e 3d a9 8f bb be 7e 42 b7 3e b7 73 0f bd
       0.06953325 -0.36633042 0.35792917 -0.035022464
0001d0 ce 88 b0 3c ba cf 33 3d 0c 7d 3a 3e 7f b5 c7 be
       0.021549609 0.043899275 0.18211764 -0.39005658
0001e0 bd 17 95 3e 79 e3 08 bd f0 60 a0 3b 54 8b 89 3e
       0.29119673 -0.03342006 0.0048943684 0.2686411
0001f0 25 57 35 bf 5a 24 b6 bb bb c7 d9 3c 29 d4 82 bd
       -0.70836097 -0.0055585327 0.026584497 -0.063881226
000200 0b 6c 92 3b 1a 70 22 3a 75 25 bc 3e 3e 3c 9c 3e
       0.004468446 0.0006196514 0.36747327 0.3051471
000210 0f 07 b3 3e 39 89 88 bd 8d b7 7f bd 9e 5d 63 bd
       0.34966323 -0.06666798 -0.062430907 -0.055509202
000220 9a 3c b6 3e a0 3a f9 bb 3f 68 43 bf 46 52 e1 3e
       0.3559311 -0.0076058656 -0.7633094 0.44008082
000230 a4 a1 f3 3e 86 7c 9e 3e 9a d7 6f 3e 6e 99 1d bd
       0.4758426 0.3095438 0.23422089 -0.0384764
000240 0a 8b f7 bc 85 66 b0 3e 37 00 c1 bc 14 6f 90 3e
       -0.030217666 0.34453216 -0.023559673 0.28209746
000250 ee f8 98 bd c4 14 9a 3c 96 eb 40 bd af d1 7a bd
       -0.074693546 0.01880873 -0.047099672 -0.061235126
000260 8c e7 2d 3c 7d b5 4a 3e cf 01 87 3d 0d 5b 8a 3e
       0.010614287 0.19795795 0.06592142 0.2702259
000270 41 36 47 bb 19 5b 26 bf 9e c0 3d 3e d1 bd 81 be
       -0.0030397328 -0.64982754 0.18530509 -0.2534013
000280 e9 0f 88 ba 35 34 07 be a7 a2 a3 3e bd 69 ed 3e
       -0.0010380718 -0.13203509 0.3196003 0.46369734
000290 bb fd 93 bd 52 f8 ff 3d 15 53 f5 3a 30 b6 ae 3c
       -0.072261296 0.12498535 0.0018716777 0.021327108
0002a0 4e 86 58 bd f5 3d 6c bd a8 aa 8a 3e fa c1 93 bd
       -0.052862458 -0.057676274 0.27083325 -0.072147325
0002b0 2c 29 3f bd c4 c3 28 3e 16 eb fc 3a 1f c9 00 bd
       -0.046670124 0.16480929 0.0019296135 -0.031441804
0002c0 5c 65 c6 bc a0 de 94 bd 81 ff a2 bd 1c e4 b8 3e
       -0.024218254 -0.07269025 -0.0795889 0.36111534
0002d0 fe ba 26 3d 08 f0 c4 3c 97 cf cd 3e 4c 44 6d 3b
       0.040705673 0.024040237 0.4019744 0.0036204038
0002e0 af 11 9d 3e e8 49 91 3e b8 56 26 3e 8c ef f8 3e
       0.30677554 0.28376698 0.16244018 0.4862026
0002f0 e2 76 1d bd 9c 88 05 bd 1a bc 0c 3f 7a 09 8c bd
       -0.038443454 -0.032600984 0.5497452 -0.06837745
000300 47 94 b1 3e 9a b0 06 3d b0 61 49 3e de 9a 73 3d
       0.3468344 0.032883264 0.19666171 0.059473865
000310 66 c2 95 bd 1e 98 13 bd a3 0d 95 3e 94 5b b0 3e
       -0.07312469 -0.036033742 0.29111966 0.3444487
000320 44 27 33 bd 45 10 61 3e 70 7d bb 3e 66 c8 7c 3e
       -0.04373862 0.21978863 0.3661914 0.24685821
000330 ba a5 e8 bc 8a 1c 91 3e dc 50 04 bd 19 19 1f bd
       -0.028399337 0.28342086 -0.032303676 -0.038842294
000340 39 07 a7 bd a1 95 a8 be 5a 28 4c bd 25 36 7e bc
       -0.081556745 -0.32926658 -0.04984317 -0.015515839
000350 80 a7 9e 3e ab 8f a6 3d 6e 00 56 bd ef ea cb 3e
       0.30987167 0.08132871 -0.052246504 0.39827678
000360 ea 52 03 3d a1 ef 86 bd 62 54 0a 3d d3 80 17 bd
       0.032061495 -0.06588674 0.03377188 -0.03698809
000370 50 e3 e5 3e 70 42 a9 3e e8 c8 e9 3e d7 89 9c 3e
       0.44899988 0.330585 0.45661092 0.30573913
000380 98 3c f7 3c a8 65 a7 bb 65 82 66 3e b6 e7 91 bc
       0.03018026 -0.005108554 0.22510679 -0.017810684
000390 1b 35 c7 3e 1c 29 d9 be a8 59 2f bc a8 54 b0 3e
       0.38907704 -0.42414176 -0.010702528 0.34439588
0003a0 e5 e6 1e bd 9d f7 14 3e 9d e1 94 3e 0b 78 8b 3e
       -0.038794417 0.14547582 0.2907838 0.27240023
0003b0 e0 50 32 bc b6 d0 85 bd 4e 30 85 3e 6d cf 67 bd
       -0.01088354 -0.06533949 0.26013416 -0.0565943
0003c0 79 ec 7a bd 15 93 9f be dc ed a7 3e 9a 5e 5f bd
       -0.061260674 -0.31166902 0.3279866 -0.05453358
0003d0 d6 84 0b 3d ca cb 4b bd 5f 05 e1 3e 75 6e ff be
       0.03406223 -0.049754895 0.4394941 -0.4988896
0003e0 48 8a 29 3e 56 d9 4d 3d 68 86 80 3c 81 4f c7 3e
       0.16556656 0.050256096 0.01568909 0.38927844
0003f0 d6 40 f5 bd 27 05 27 bc b9 65 b6 bc 75 2f 96 3d
       -0.11975257 -0.0101940995 -0.022265302 0.073332705

fc3.bias f4 [2]
000000 96 74 d6 3d 2f 56 df bc
       0.10471456 -0.027262775
