cartpole-implementation/best_meta_network.pth (torch, 73805 bytes, 5 tensors)

fc1.weight f4 [128, 7]
0	0x3e599a92	0.2125037
1	0x3d98522c	0.07437548
2	0xbc78abc0	-0.015177667
3	0xbea6d351	-0.32583097
4	0x3e53ab6e	0.20670864
5	0xbea94d98	-0.33067012
6	0xbd1fcfd0	-0.039016545
7	0xbc52e660	-0.0128723085
8	0x3e91caaf	0.28474948
9	0xbe881a00	-0.26582336
10	0xbe10d3ff	-0.1414337
11	0x3e5a854a	0.21339908
12	0x3dde6fce	0.10861169
13	0x3d5a6233	0.053316306
14	0x3e706524	0.23476082
15	0x3e70ebe9	0.23527493
16	0x3ea265a8	0.31718183
17	0x3ebd3e06	0.36961383
18	0x3b8c0f48	0.0042742826
19	0x3eb9f772	0.36321598
20	0xbd5d1258	-0.053972572
21	0x3e877888	0.26459146
22	0x3e89fb43	0.2694951
23	0xbe0ad8c4	-0.13559252
24	0xbd83de1a	-0.06438847
25	0xbeb0a508	-0.3450091
26	0x3ddb5179	0.10708899
27	0xbced19ad	-0.028942907
28	0x3e876c8f	0.2645001
29	0x3ea5fae9	0.32417992
30	0x3eaab768	0.33343053
31	0xbcb6ed8d	-0.02233007
32	0x3e97ab2f	0.2962279
33	0xbd9f91fc	-0.07791516
34	0x3ca630b6	0.020286899
35	0xbe2b2f60	-0.16717291
36	0x3ea94ed1	0.33067945
37	0xbc44d94d	-0.012014699
38	0xbccd7824	-0.025081702
39	0xbe13fa7b	-0.1445102
40	0x3e8a39f2	0.26997334
41	0x3d142333	0.03616638
42	0x3e665ba5	0.22495897
43	0xbe998f9a	-0.29992372
44	0xbe8f3e8c	-0.27977407
45	0xbdc61e0c	-0.096737
46	0x3ec3ecf1	0.3826671
47	0xbe9b019e	-0.3027467
48	0x3e15ca2d	0.14627905
49	0xbe0abcfa	-0.13548651
50	0x3dd2b474	0.10288325
51	0xbe942727	-0.2893612
52	0x3e5dfa51	0.2167752
53	0x3d7cc46e	0.061710767
54	0xbe892f18	-0.26793742
55	0x3eb349a6	0.35017127
56	0xbdd0fe81	-0.10204793
57	0xbd6e7002	-0.058212288
58	0xbea19042	-0.31555372
59	0x3e378bbd	0.179244
60	0x3e0e0273	0.13868122
61	0xbe5695c0	-0.20955563
62	0x3eb71299	0.35756376
63	0x3daab514	0.08335319
64	0xbdda383c	-0.10655257
65	0x3e41f4b6	0.18941006
66	0xbd6d5668	-0.05794373
67	0x3da6572c	0.081220955
68	0x3e6eb4ea	0.233112
69	0xbeba715a	-0.36414605
70	0x3e862896	0.2620284
71	0x3ea7a57f	0.3274345
72	0xbbf712c4	-0.007540079
73	0xbea165ec	-0.31523073
74	0x3d914471	0.07093132
75	0x3e452369	0.19251789
76	0xbe9db178	-0.3079946
77	0x3eb11e64	0.345935
78	0x3d301965	0.042992968
79	0xbdf77cc1	-0.12084342
80	0xbe6f1eb9	-0.23351564
81	0xbead917d	-0.3390006
82	0xbe895676	-0.26823777
83	0x3e717697	0.23580395
84	0xbe0845ce	-0.13307878
85	0xbe69c490	-0.22828889
86	0xbd37f964	-0.04491557
87	0x3ea00b38	0.3125856
88	0xbeb08dae	-0.34483093
89	0xbd7ff2da	-0.06248746
90	0x3b96dc36	0.004603888
91	0x3dd71180	0.10501385
92	0xbe8057a7	-0.25066873
93	0xbcb5e69a	-0.022204686
94	0x3eb59be0	0.35470486
95	0xbe81bbdb	-0.25338635
96	0x3ec73c5a	0.38913232
97	0x3e870508	0.26371026
98	0xbe932ed8	-0.28746676
99	0x3c12dfc3	0.008964482
100	0x3e6c9384	0.23103148
101	0x3d597757	0.053092327
102	0xbe6a006b	-0.22851722
103	0xbe7808d2	-0.24222115
104	0x3c683b24	0.0141742565
105	0xbe77368b	-0.241419
106	0xbcdce73d	-0.026965732
107	0x3e2503e1	0.16114761
108	0x3e3e030c	0.1855585
109	0xbd8a25df	-0.067455046
110	0x3e063735	0.13106997
111	0xbdf4c96c	-0.11952481
112	0xbe08a558	-0.13344324
113	0xbe7bbeb2	-0.24584463
114	0xbe5879cd	-0.21140213
115	0x3dce1e87	0.100644164
116	0x3e54ccb7	0.20781218
117	0x3eadee6d	0.33970967
118	0x3e76c508	0.24098599
119	0x3e839551	0.25699857
120	0x3dc077e6	0.09397869
121	0xbdbd797b	-0.09251686
122	0x3e60a09d	0.21936269
123	0xbe30d86d	-0.1727006
124	0x3e4a85ab	0.19777553
125	0xbe1a9e70	-0.15099502
126	0x3ccb0496	0.02478246
127	0x3e18c013	0.1491702
128	0x3e5d7e9c	0.21630329
129	0x3ccd340b	0.02504923
130	0x3e752fcf	0.23944019
131	0x3ec30a13	0.38093624
132	0x3e7a2dfb	0.24431603
133	0x3e5dd36b	0.21662681
134	0xbe31f252	-0.17377594
135	0x3e81fe7f	0.25389478
136	0xbe502296	-0.20325693
137	0xbcdf2b46	-0.027242314
138	0x3e1f1473	0.15535145
139	0x3d2986e0	0.041388392
140	0x3eb632fb	0.3558577
141	0xbd0e045d	-0.03467213
142	0x3e488e49	0.19585527
143	0x3ebe562f	0.37175128
144	0x3da05f7e	0.07830714
145	0xbe2e9d0f	-0.170521
146	0x3dc1bf9a	0.09460373
147	0xbea51a04	-0.3224641
148	0x3dfb3d30	0.1226753
149	0x3e1c4571	0.15260865
150	0x3b7cc5a7	0.0038569958
151	0x3dc33cd3	0.09533086
152	0xbe94cd7e	-0.29063028
153	0x3e8b434f	0.2719979
154	0x3debee25	0.11520032
155	0x3d94f10a	0.07272537
156	0xbddf9da3	-0.10918739
157	0x3dd1580a	0.1022187
158	0xbdd32dcb	-0.10311469
159	0x3d939adf	0.07207274
160	0xbdacc247	-0.08435493
161	0x3ea0b0d9	0.31384924
162	0x3e8c6885	0.27423492
163	0xbd94157d	-0.07230661
164	0xbc99d671	-0.018779011
165	0x3e9fb130	0.3118987
166	0x3dfe5c63	0.12419965
167	0x3e214afd	0.15751262
168	0x3e9ae3d4	0.30251944
169	0xbd8629a7	-0.06550913
170	0xbdb7aa35	-0.08968011
171	0xbdf61a9f	-0.12016796
172	0x3eaeb05e	0.34118932
173	0x3cc61ed6	0.024184626
174	0x3e80ba31	0.25142053
175	0xbde1fd52	-0.11034645
176	0xbeaa1577	-0.332195
177	0x3e2bc053	0.16772585
178	0xbe1f7f73	-0.15575962
179	0x3e63996c	0.22226495
180	0xbdc6711f	-0.09689545
181	0x3eac9b28	0.33712125
182	0x3e3cc26e	0.18433544
183	0xbe366a17	-0.17813908
184	0xbeac7880	-0.33685684
185	0xbeba5960	-0.36396313
186	0xbe67bf83	-0.2263165
187	0xbe019d2c	-0.12657613
188	0xbe4b58ae	-0.19858047
189	0x3e426c52	0.18986633
190	0x3e1ff0ed	0.1561925
191	0x3dfe6554	0.124216706
192	0x3e004656	0.12526831
193	0xbdcd8ae8	-0.1003626
194	0xbe84bfa4	-0.2592746
195	0x3e4d1a00	0.2002945
196	0xbe92ce76	-0.28673142
197	0xbe64df13	-0.22350721
198	0x3d7ac586	0.06122353
199	0x3d0f314b	0.03495912
200	0xbe9ff3ca	-0.31240684
201	0xbd65783b	-0.056022864
202	0x3d73fff0	0.059570253
203	0x3ccdd67f	0.025126694
204	0xbdecd92c	-0.1156486
205	0xbe4f4def	-0.20244573
206	0x3e77fbc6	0.24217138
207	0xbe8b354b	-0.27189097
208	0xbe162603	-0.14662938
209	0xbe508250	-0.2036221
210	0x3e784a1d	0.24247022
211	0x3bf5af42	0.007497699
212	0xbe094bc7	-0.13407813
213	0x3e503601	0.20333101
214	0x3e5cdece	0.21569368
215	0x3e44bd0a	0.19212738
216	0xbea1d482	-0.31607443
217	0x3d33f305	0.043932933
218	0xbe1df8f0	-0.15426993
219	0xbebeb542	-0.37247664
220	0x3eb14a51	0.3462701
221	0x3e051e14	0.12999755
222	0x3e018132	0.1264694
223	0xbea41c60	-0.32052898
224	0xbd29ea76	-0.041483365
225	0xbe6c6cc1	-0.23088361
226	0xbea442e6	-0.3208229
227	0xbe99f833	-0.30072173
228	0xbdca6627	-0.09882765
229	0xbc9536f5	-0.018214682
230	0x3e8861b0	0.2663703
231	0x3e7e2c67	0.24821626
232	0xbe285854	-0.16439945
233	0x3d92908b	0.07156476
234	0x3da8fd10	0.08251393
235	0xbe9f2482	-0.3108254
236	0x3e36f7b1	0.17867924
237	0x3e6b383f	0.22970675
238	0xbe3826eb	-0.17983596
239	0x3d194730	0.037421405
240	0x3e40c3b2	0.18824652
241	0xbeb58033	-0.3544937
242	0xbeb28173	-0.34864387
243	0xbec0c17a	-0.3764761
244	0x3de6b191	0.11264337
245	0xbe19b17d	-0.15009113
246	0x3e165358	0.1468023
247	0x3e111f6c	0.14172143
248	0xbe84f5cd	-0.2596878
249	0xbdd033a5	-0.101661004
250	0x3c9ee3c0	0.019395709
251	0x3bba739d	0.0056900517
252	0x3c1d4f19	0.009601378
253	0x3db88b1c	0.09010908
254	0x3c905280	0.017617464
255	0x3e6453f2	0.22297648

fc1.bias f4 [128]
0	0xbe846875	-0.25860944
1	0xbe9bd742	-0.30437666
2	0x3ec4a8be	0.3840999
3	0xbe8254f4	-0.2545544
4	0xb9e8c73a	-0.00044398924
5	0x3ed15280	0.40883255
6	0xbd677035	-0.056503493
7	0x3e9617e4	0.29315102
8	0x3e92d0ba	0.2867487
9	0xbeb4d461	-0.35318282
10	0x3eae62b1	0.3405967
11	0xbe9fe430	-0.3122878
12	0x3e3cf071	0.18451096
13	0x3d11c83f	0.03559136
14	0x3e044e67	0.12920533
15	0x3e8800af	0.26563022
16	0xbdb4bd5d	-0.08825181
17	0xbe115b72	-0.1419504
18	0xbe561b69	-0.20908894
19	0x3e8f3186	0.2796747
20	0x3e3fab35	0.18717654
21	0x3e702aad	0.2345378
22	0x3e6136b8	0.2199353
23	0x3d1ac3a0	0.03778422
24	0xbe8236ba	-0.25432378
25	0xbe8c393e	-0.27387422
26	0xbe0fd1e3	-0.14044909
27	0xbe1ffba0	-0.15623331
28	0xbe2d230e	-0.16907904
29	0x3da85b5e	0.08220552
30	0xbebed418	-0.3727119
31	0xbe9df0a7	-0.30847666
32	0x3e8ebe04	0.27879345
33	0xbe8a2450	-0.2698083
34	0xbc475d62	-0.01216826
35	0x3e5d8a32	0.21634749
36	0xbda1bc84	-0.078972846
37	0x3e163a5d	0.14670701
38	0x3e37a00c	0.17932147
39	0x3e44bf91	0.19213702
40	0x3db57b10	0.08861363
41	0xbe03fc81	-0.12889291
42	0xbe0d8ccb	-0.1382324
43	0x3e6d9f95	0.23205407
44	0xbe92441b	-0.28567585
45	0x3ed2d158	0.41175342
46	0x3e6e9e3a	0.23302546
47	0x3df486d0	0.11939776
48	0x3eab7066	0.3348419
49	0xbe8a3716	-0.26995152
50	0x3e33866c	0.17531747
51	0xbe495ba4	-0.19663864
52	0x3e84467c	0.25835025
53	0xbd9adcc8	-0.07561642
54	0x3eaa8a7c	0.3330878
55	0xbdeeff84	-0.116698295
56	0xbe1c3f11	-0.15258433
57	0x3eb95404	0.3619691
58	0xbdbb14de	-0.091348395
59	0x3c5e0946	0.013552016
60	0x3e0d3ba1	0.13792278
61	0x3e42ea94	0.19034797
62	0x3df0bd51	0.11754859
63	0x3df0e888	0.11763102
64	0xbc6bad65	-0.014384602
65	0x3db3e116	0.08783166
66	0x3ecf7260	0.4051695
67	0xbeabc641	-0.33549693
68	0x3e77e128	0.24206984
69	0x3dbad1a5	0.09122018
70	0xbea329fb	-0.31867966
71	0xbd1899b1	-0.037255947
72	0xbe9b5161	-0.30335525
73	0x3ea4b715	0.3217093
74	0x3b7346e6	0.0037121116
75	0xbd1a1827	-0.03762069
76	0x3ea79273	0.3272892
77	0x3dd99f0a	0.106260374
78	0xbeac32a5	-0.3363239
79	0x3cf996f4	0.030467488
80	0x3ec13016	0.37732
81	0x3e52bfbe	0.20580956
82	0x3d31772e	0.04332655
83	0xbe7a7159	-0.24457301
84	0x3e920d19	0.28525618
85	0x3ea6538b	0.32485613
86	0x3eb730e0	0.35779476
87	0x3ec9a57c	0.39384067
88	0x3ed0eef9	0.40807322
89	0x3d8cfb14	0.06883827
90	0x3d843d46	0.064569995
91	0x3e5a5516	0.2132152
92	0xbda8a2d0	-0.08234179
93	0xbd3ef29c	-0.04661809
94	0x3e80fc29	0.25192383
95	0x3e4584bc	0.19288915
96	0xbe23b3f9	-0.15986623
97	0xbe6a0325	-0.22852762
98	0xbda82ac7	-0.08211284
99	0x3da22ba6	0.079184815
100	0xbea5a57d	-0.3235282
101	0xbea26a9c	-0.31721961
102	0xbcf42303	-0.029801851
103	0xbeafa922	-0.34308726
104	0x3e293451	0.16523863
105	0x3baa1722	0.005190746
106	0x3cdb0d30	0.026739687
107	0x3df5fdb6	0.12011282
108	0xbe98a22a	-0.2981122
109	0xbdce9770	-0.10087478
110	0x3e151ec2	0.14562514
111	0x3e8d63a2	0.27615076
112	0x3ec02c21	0.37533668
113	0x3eac41eb	0.3364404
114	0x3e11d7e7	0.14242516
115	0xbd910306	-0.07080655
116	0xbe71cee8	-0.23614085
117	0x3cb802dd	0.022462303
118	0x3d010e53	0.0315078
119	0x3e67943b	0.22615139
120	0xbc0828d3	-0.0083105145
121	0xbdc147d1	-0.09437526
122	0xbcc544c0	-0.024080634
123	0x3eabfa79	0.33589533
124	0x3e88f52c	0.2674955
125	0x3ec113db	0.3771046
126	0xbe5f8457	-0.21827827
127	0xbe249587	-0.16072665

fc2.weight f4 [128, 128]
0	0x3d669486	0.056293987
1	0x3c5537e0	0.01301381
2	0xbd25d0ef	-0.040482458
3	0x3dae6c89	0.08516795
4	0x3d2f0b06	0.042735122
5	0xbd2b90b6	-0.041886054
6	0xbc4eff08	-0.012634046
7	0x3d9285c1	0.07154418
8	0x3c9557cc	0.018230341
9	0x3d3988ee	0.045296602
10	0x3d802ddb	0.06258746
11	0xbd9acdd2	-0.07558788
12	0x3c99be60	0.018767536
13	0x3c9f7dcc	0.019469164
14	0x3d9de2bb	0.07709261
15	0x3cec214c	0.028824471
16	0x3d8272af	0.063695304
17	0xbd5424bd	-0.05179285
18	0xbcb9c224	-0.022675581
19	0xbd39a98d	-0.04532771
20	0xbd9eb75c	-0.07749817
21	0x3cfda5b0	0.030962795
22	0xbcccd8d0	-0.025005728
23	0xbc38be70	-0.011275873
24	0x3afa8a00	0.0019114614
25	0xbd02dcc3	-0.031948816
26	0xbbcbfca0	-0.0062251836
27	0x3d12ab56	0.03580793
28	0x3d5e353a	0.05424998
29	0xbd35282f	-0.044227775
30	0xbd0d270e	-0.034461074
31	0x3d105f38	0.035247058
32	0x3d8b0685	0.06788353
33	0xbd2bc063	-0.04193152
34	0x3d8c3ee7	0.06847935
35	0xbd1d57a7	-0.03841367
36	0xbcf3db0e	-0.02976754
37	0xbc91e330	-0.017808527
38	0x3d17a592	0.037023135
39	0xbb979bb0	-0.0046267137
40	0x3d0475f8	0.032339066
41	0x3d51347e	0.05107545
42	0xbd36e437	-0.044651236
43	0x3d08b3fc	0.03337477
44	0xbc63bd88	-0.013900168
45	0xbca20b14	-0.019780673
46	0xbca59dd4	-0.02021686
47	0x3c95cd68	0.018286422
48	0xbd074710	-0.033026755
49	0x3da79b75	0.08183948
50	0x3c3fe868	0.011713125
51	0x3d966765	0.0734394
52	0x3b279b40	0.0025574714
53	0xbce7f312	-0.028314147
54	0xbc99d364	-0.018777557
55	0xbd3f6e06	-0.046735786
56	0xbbbad810	-0.005702026
57	0x3d9f2871	0.077713855
58	0xbb33ba00	-0.0027424097
59	0x3d8b66e3	0.068067335
60	0xbdade7e1	-0.08491493
61	0xbc9c31bc	-0.019066684
62	0x3d358b3e	0.044322245
63	0x3d029eb4	0.031889632
64	0x3b8237b0	0.0039739236
65	0xbd3c477e	-0.045966618
66	0xbc784288	-0.015152581
67	0xbcd7644c	-0.026292942
68	0xbd083c10	-0.033260405
69	0xbb874a40	-0.0041287243
70	0xbcd51396	-0.026010316
71	0xbcb9ed54	-0.022696175
72	0xbd24bc88	-0.04021886
73	0xbcb5b230	-0.022179693
74	0xbca88bf0	-0.02057454
75	0x3cba94ec	0.02277609
76	0xbce5e5a6	-0.028063606
77	0x3cd9f4d4	0.026606001
78	0xbc50e520	-0.01274994
79	0xbd9eda38	-0.07756466
80	0x3c952c58	0.018209621
81	0xbd839072	-0.06424035
82	0x3d99180d	0.074752904
83	0xbd1d889c	-0.03846036
84	0x3d1e1016	0.03858956
85	0xbce0180a	-0.027355213
86	0xbd0389b5	-0.03211375
87	0xbda8744e	-0.08225308
88	0xbda5ce65	-0.08096007
89	0x3d828551	0.06373084
90	0xbc6b6738	-0.014367871
91	0xbda4957d	-0.08036325
92	0xbd94d914	-0.07267967
93	0xbcd23480	-0.0256598
94	0xbc754df8	-0.0149722025
95	0x3cf75880	0.030193567
96	0xba313d80	-0.00067611784
97	0xbca10738	-0.019656762
98	0xbd8125f8	-0.0630607
99	0xbd9ac748	-0.07557541
100	0x3c49c750	0.012315586
101	0xbcf23116	-0.029564422
102	0x3bad2b80	0.0052847266
103	0xbda3cc93	-0.07998004
104	0xbd244c53	-0.04011185
105	0xbd14725c	-0.036241874
106	0x3d037412	0.032093115
107	0x3d92c297	0.07166021
108	0xbd64895d	-0.055795062
109	0x3ad2eb00	0.0016091764
110	0xbc53d1c0	-0.012928426
111	0x3c185c30	0.009299323
112	0x3cbdb1a4	0.023155995
113	0xbb225f80	-0.002477616
114	0xbd5096dc	-0.05092512
115	0xbd854b8f	-0.06508552
116	0x3da1bc07	0.078971915
117	0xbbec24e0	-0.0072065443
118	0x3d68ff8e	0.05688434
119	0xbd94ca84	-0.07265189
120	0x3c1f0f48	0.009708233
121	0xbd607e2b	-0.054807823
122	0x3d63f1f6	0.055650674
123	0xbd4fe845	-0.05075862
124	0x3d93fa49	0.072254725
125	0x3d091662	0.03346861
126	0xbd98d55f	-0.07462572
127	0x3d8ae5e9	0.06782133
128	0xbbde4a70	-0.006783776
129	0x3d9f0c47	0.077660136
130	0xbca79fa6	-0.020461868
131	0x3bd13960	0.0063850135
132	0x3b7a7f00	0.003822267
133	0x3da14b13	0.078756474
134	0xbd222c4e	-0.039593033
135	0x3d056ecf	0.03257638
136	0xbcc81b04	-0.024426945
137	0xbd8a1858	-0.067429245
138	0x3d578a1a	0.05262194
139	0xbd908f47	-0.07058578
140	0xbd68c37a	-0.056827046
141	0xbd8b8786	-0.068129584
142	0x3da6ff98	0.081542194
143	0x3d5f373c	0.054496035
144	0xbccb2dd1	-0.02480212
145	0xbd61e2fb	-0.055148106
146	0x3d36c6da	0.044623233
147	0x3d820129	0.063478775
148	0x3b4bac88	0.0031078178
149	0xbda2f825	-0.07957486
150	0xbbb242fb	-0.0054401136
151	0xbc849408	-0.016183868
152	0x3d4e4f7a	0.050368764
153	0x3d85e5bd	0.0653796
154	0x3d1606b2	0.03662748
155	0xbcc55cf2	-0.024092171
156	0x3ca2c3e0	0.019868791
157	0xbb13c860	-0.0022549853
158	0xbd2c63c3	-0.042087328
159	0x3db0d58f	0.08634483
160	0x3d19ab22	0.03751672
161	0x3d14d24e	0.036333375
162	0x3c591860	0.01325044
163	0xbd8526db	-0.06501552
164	0xbdb28c73	-0.08718195
165	0x3d5fb50b	0.054616015
166	0xbd7ba2e3	-0.061434638
167	0x3bd4435c	0.0064777564
168	0x3d8e9663	0.06962278
169	0xbda3779a	-0.079817966
170	0x3cdfc73c	0.027316682
171	0x3d13d5c1	0.036092523
172	0x3d631972	0.05544419
173	0xbd8babf1	-0.068199046
174	0xbdb9a7ee	-0.09065233
175	0xbd360ffd	-0.04444884
176	0xbd2e31be	-0.042527907
177	0xbda5f65a	-0.081036285
178	0xbd0163b6	-0.031589232
179	0xbd0680e5	-0.032837767
180	0xbc889aaa	-0.016675312
181	0x3d601dba	0.05471585
182	0xbd7c78d4	-0.06163867
183	0xbd16d492	-0.036823817
184	0xbda314a1	-0.07962919
185	0x3bb45845	0.0055036866
186	0xbdbf946c	-0.09354481
187	0xbdad8e62	-0.08474423
188	0x3ba1f165	0.0049421065
189	0xbdb0d4f6	-0.08634369
190	0x3cd3a5f8	0.025835976
191	0xbd4cc874	-0.049995854
192	0x3ced2278	0.0289471
193	0x3d6b4412	0.057437964
194	0x3d11cc16	0.035595022
195	0x3cf0fdb3	0.029417848
196	0xbd83e52b	-0.06440195
197	0xbd5a7467	-0.053333666
198	0x3db19bc5	0.08672289
199	0x3af86940	0.0018952265
200	0x3d7397ea	0.05947105
201	0xbd91c3aa	-0.07117398
202	0x3cef85bc	0.029238574
203	0xbc88afcc	-0.016685389
204	0x3d147c3a	0.036251284
205	0xbd8abc0f	-0.067741506
206	0x3c9a643c	0.018846624
207	0xbd84afbc	-0.06478831
208	0x3ca46d94	0.020071782
209	0xbda82ac1	-0.0821128
210	0x3c95b3d2	0.018274222
211	0x3da7c589	0.08191974
212	0x3d22c0f3	0.039734792
213	0xbd43c68a	-0.047796763
214	0xbcf9508d	-0.030433917
215	0xbd916bb8	-0.07100624
216	0x3d602f53	0.054732632
217	0xbc42a108	-0.011879213
218	0x3cca4edc	0.024695806
219	0xbda312ac	-0.07962546
220	0x3d16b3a1	0.0367924
221	0x3c46b97a	0.012129182
222	0xbd152a98	-0.036417574
223	0x3d48b387	0.048999336
224	0x3d6a47e2	0.05719746
225	0xbd3108e2	-0.043221362
226	0xbb85c006	-0.004081729
227	0xbd95408a	-0.072877005
228	0x3cc92278	0.024552569
229	0xbd9e1798	-0.07719344
230	0x3c1a84f8	0.009431116
231	0x3d24b25e	0.040209167
232	0x3d434e56	0.04768213
233	0xbc5c4578	-0.013444297
234	0x3d0450ec	0.032303736
235	0x3d062798	0.032752603
236	0x3d940b2b	0.072286926
237	0x3da9775b	0.082747184
238	0x3da6921d	0.08133338
239	0xbd624874	-0.055244878
240	0x3b6e0dfe	0.0036324258
241	0xbdb05c1b	-0.08611318
242	0x3d122e06	0.035688423
243	0x3d3c7443	0.046009313
244	0x3d1ff4c7	0.039051797
245	0x3c62eda8	0.013850607
246	0xbda32dea	-0.07967742
247	0xbd05a96c	-0.032632276
248	0x3ccb7b97	0.024839206
249	0x3da6cd2f	0.081446044
250	0xbd08bbda	-0.033382274
251	0xbc370318	-0.011170171
252	0x3d2080e7	0.03918543
253	0xbce4d34f	-0.027932791
254	0x3c769b28	0.015051641
255	0xbcb1e240	-0.02171433

fc2.bias f4 [128]
0	0x3d31bcd6	0.04339298
1	0xbc80ee62	-0.01573867
2	0xbc606ba0	-0.013697535
3	0x3d2816f6	0.041037522
4	0x3bf1e2b7	0.007381763
5	0xbd5b8719	-0.053595636
6	0xbd08a263	-0.03335799
7	0x3e027c91	0.12742831
8	0xbd3001d6	-0.0429705
9	0x3d4915cf	0.049093064
10	0xbdc19183	-0.09451582
11	0x3cd34624	0.025790282
12	0xbb3b9f4e	-0.0028628889
13	0xbda43d4d	-0.08019505
14	0xbd05bc9e	-0.032650582
15	0x3cdc5c88	0.026899591
16	0x3cee4c0a	0.029088993
17	0xbd020f02	-0.031752594
18	0xbc736458	-0.014855467
19	0x3d4f099a	0.050546266
20	0xbdb572ec	-0.0885981
21	0x3d0253ed	0.03181832
22	0x3d0aae36	0.033857547
23	0xbd12d956	-0.0358518
24	0xbca6a99d	-0.02034455
25	0xbccd6dc0	-0.025076747
26	0x3d7b80e9	0.061402235
27	0xbb815450	-0.0039468184
28	0xbdb78f4f	-0.08962881
29	0xbccfc57a	-0.025362719
30	0x3bb5887f	0.0055399532
31	0xbd88dec2	-0.06683113
32	0x3d9b59c2	0.07585479
33	0xbd8ff2e7	-0.07028752
34	0x3d375a54	0.044763878
35	0x3da210ee	0.07913385
36	0x3cdc2dd1	0.026877316
37	0x3ddf4368	0.109015286
38	0xbd4b2de3	-0.049604308
39	0xbcc2694d	-0.023731852
40	0xbc14537a	-0.0090531055
41	0x3c97eab7	0.018544538
42	0xbcd9bec8	-0.02658023
43	0x3dcbd001	0.09951783
44	0xbb18be01	-0.002330661
45	0xbd2c6494	-0.042088106
46	0xbc083b86	-0.008314973
47	0xbd3adec8	-0.045622617
48	0x3ca935f0	0.020655602
49	0x3bdc2152	0.0067178393
50	0x3dcac436	0.099007055
51	0x3d8e7228	0.06955367
52	0xbc59fd58	-0.013305031
53	0x3ceff9f8	0.029294
54	0x3d2ff296	0.042955957
55	0x3a285fbf	0.00064229587
56	0x3cef4a34	0.029210187
57	0xbdb9e5c2	-0.09077026
58	0xbd513570	-0.051076353
59	0xbcdbfeb7	-0.026854856
60	0x3d49ba77	0.049250092
61	0xbca34404	-0.019929893
62	0xbd6a268e	-0.057165675
63	0xbd9b736f	-0.075903766
64	0x3d99bebd	0.075070836
65	0x3d9980f7	0.07495301
66	0xbd047c9c	-0.0323454
67	0x3b922a8e	0.0044606393
68	0x3da73d45	0.08165983
69	0xbd2688fb	-0.04065798
70	0x3ded6a4e	0.11592542
71	0x3cb1ea84	0.021718271
72	0x3d7062d9	0.05868802
73	0x3c8c1388	0.017099157
74	0x3d5e9435	0.05434056
75	0xbd9d7c98	-0.0768978
76	0xbc19bf3e	-0.009383975
77	0xbd339f19	-0.0438529
78	0xbcf18541	-0.029482486
79	0x3d708e27	0.058729317
80	0xbcd119ee	-0.02552506
81	0x3ab770c9	0.0013995405
82	0x3d85faa4	0.065419465
83	0xbc50f888	-0.012754567
84	0x3d078e9a	0.03309498
85	0xbd9fce09	-0.0780297
86	0xbd857850	-0.065170884
87	0xba80c7c0	-0.0009825155
88	0xbd44c1ad	-0.048036266
89	0x3d6252d4	0.055254772
90	0xbd92d5ac	-0.07169661
91	0x3dc13632	0.09434165
92	0x3cb7495b	0.022373846
93	0x3d794b3c	0.060862765
94	0xbd130072	-0.035889097
95	0xbd8cbd5e	-0.068720564
96	0xbc915e66	-0.017745208
97	0x3c2797aa	0.010229031
98	0x3dc7dbc9	0.097587176
99	0xbd2c7f1f	-0.04211342
100	0x3d3ca29c	0.046053514
101	0x3dc0cd48	0.09414154
102	0xbcd45e39	-0.025923835
103	0xbb8a2b0c	-0.0042165574
104	0xbdb3f61b	-0.08787175
105	0x3c011dbb	0.007880623
106	0x3cf079a6	0.029354881
107	0xbd089109	-0.03334144
108	0xbdafdd7e	-0.08587168
109	0x3de33e4e	0.11095868
110	0x3da57d4a	0.080805376
111	0x3d82f196	0.06393735
112	0x3c8eefc7	0.01744832
113	0x3d00dd8b	0.03146128
114	0xbd2c09fe	-0.042001717
115	0x3dcccd35	0.10000078
116	0xbc29384c	-0.010328364
117	0x3de21654	0.11039415
118	0xbcd91372	-0.02649853
119	0xbdc5637a	-0.09638114
120	0x3da17bbd	0.07884929
121	0x3d75eecb	0.060042184
122	0x3bc9a3dc	0.0061535668
123	0xbdbcb6fe	-0.092145905
124	0x3d017db6	0.031614028
125	0x3b4d3b08	0.0031315703
126	0xbdc07a81	-0.09398366
127	0xbc27fe80	-0.010253549

fc3.weight f4 [1, 128]
0	0x3c545518	0.012959741
1	0xbd330cfc	-0.043713555
2	0xbda2f1b0	-0.079562545
3	0xbd469c9b	-0.048489194
4	0xbd46f2dd	-0.048571456
5	0x3da4890c	0.08033952
6	0x3ddce4b8	0.10785812
7	0x3df46046	0.11932425
8	0xbd31196f	-0.043237146
9	0xbd91b328	-0.071142495
10	0xbd8c8bb5	-0.068625845
11	0x3dac408b	0.08410748
12	0xbd974f80	-0.0738821
13	0x3d2d1cec	0.04226391
14	0x3d763cfe	0.06011676
15	0xbd860919	-0.06544704
16	0xbd6c8f7b	-0.05775402
17	0x3da13d13	0.07872977
18	0xbcb0472c	-0.021518312
19	0x3dc422c9	0.09576947
20	0x3c500cf9	0.012698405
21	0x3d6e4dca	0.058179654
22	0xbd305230	-0.04304713
23	0x3b524f81	0.0032090845
24	0xbba82d0b	-0.0051323227
25	0x3da41cab	0.080132805
26	0xbcbff692	-0.023433004
27	0xbd9de7e8	-0.07710248
28	0x3d73df48	0.05953911
29	0xb9f2e918	-0.00046331505
30	0x3dbc78d6	0.09202735
31	0x3da637c8	0.08116108
32	0x3d9a1590	0.07523644
33	0xbd543a57	-0.05181345
34	0x3d6aba24	0.057306424
35	0x3dc205d1	0.09473766
36	0xbc802400	-0.015642166
37	0x3d5d8a9e	0.054087274
38	0x3dd986a4	0.10621384
39	0xbd220909	-0.039559398
40	0x3dc93d62	0.09826161
41	0xbd328116	-0.043580137
42	0x3d79304a	0.060837068
43	0x3d9bf138	0.07614368
44	0xbd42cb44	-0.04755713
45	0x3d84a111	0.064760335
46	0x3db82241	0.089909084
47	0xbb003652	-0.0019563627
48	0xbd5da0e1	-0.054108504
49	0x3d8d9438	0.06913036
50	0x3dab950d	0.083780386
51	0xbd10dcf0	-0.035366952
52	0x3b337400	0.0027382374
53	0x3d9f9922	0.0779288
54	0x3db6b8a9	0.0892194
55	0x3d4d273f	0.050086256
56	0xbd03a1f8	-0.032136887
57	0xbba566a9	-0.0050476384
58	0xbda23575	-0.07920352
59	0xbc8d37b7	-0.017238481
60	0x3ddfc626	0.10926466
61	0xbd8ded55	-0.06930033
62	0xbcefff87	-0.02929665
63	0x3d38e392	0.045138903
64	0x3cc27ff6	0.023742657
65	0xbcc4f141	-0.02404082
66	0xbd8ec862	-0.06971814
67	0xbd2fa1ac	-0.04287879
68	0x3d6b32a7	0.057421353
69	0x3db551a7	0.088534646
70	0x3d622539	0.05521128
71	0x3d84d4a1	0.06485868
72	0xbd54f98e	-0.051995806
73	0x3d62914a	0.05531434
74	0xbc98fe61	-0.018675985
75	0x3d697936	0.05700036
76	0xbcee59cb	-0.029095551
77	0x3da7edb5	0.08199636
78	0xbd905158	-0.07046765
79	0xbdd643dc	-0.10462162
80	0xbd45dce3	-0.048306357
81	0x3dd9dd36	0.10637896
82	0xbbde555f	-0.0067850794
83	0x3d0c87f5	0.034309346
84	0xbbaf874e	-0.0053567057
85	0xbc513eb9	-0.012771302
86	0xbd1b2cdf	-0.03788459
87	0xbd819317	-0.06326883
88	0x3dfa73c3	0.12229111
89	0xbcf8db8c	-0.030378126
90	0xbcbc0fc5	-0.022956738
91	0x3dbf1245	0.093296565
92	0x3e015f75	0.1263407
93	0x3da5e234	0.080997854
94	0x3d8481c5	0.06470064
95	0xbd734dec	-0.059400484
96	0x3d21af4c	0.039473817
97	0x3dedc45e	0.1160972
98	0x3d65ebba	0.05613301
99	0xbd35f260	-0.0444206
100	0x3e0d6589	0.13808264
101	0x3cfb5575	0.030680398
102	0x3d1b3928	0.037896305
103	0x3d6a088b	0.057137053
104	0xbd81da9e	-0.06340526
105	0x3de52fec	0.11190781
106	0xba49e33d	-0.00077014026
107	0x3e1e9feb	0.15490691
108	0xbcf81491	-0.030283244
109	0x3dd56bb4	0.10420933
110	0x3d7b82e3	0.06140412
111	0xbd8fd26d	-0.070225574
112	0xbde87911	-0.113512166
113	0x3dd013d5	0.10160033
114	0xbcac4a3c	-0.021031491
115	0x3d9e88f2	0.07740964
116	0x3d8ec178	0.06970495
117	0x3d8fb503	0.07016947
118	0x3da263ff	0.07929229
119	0xbd76c8d1	-0.060250107
120	0x3c0adfd0	0.008476213
121	0x3d5f0961	0.054452304
122	0x3d5c0cf4	0.05372329
123	0xbd809039	-0.06277508
124	0x3e023d05	0.1271859
125	0xbd697475	-0.056995828
126	0xbd104832	-0.0352251
127	0x3cb3fa98	0.021970078
